{"format": "graph-model", "generatedBy": "2.10.0", "convertedBy": "TensorFlow.js Converter v3.19.0", "signature": {"inputs": {"image": {"name": "image:0", "dtype": "DT_FLOAT", "tensorShape": {"dim": [{"size": "-1"}, {"size": "155"}, {"size": "50"}, {"size": "1"}]}}, "label": {"name": "label:0", "dtype": "DT_FLOAT", "tensorShape": {"dim": [{"size": "-1"}, {"size": "-1"}]}}}, "outputs": {"ctc_loss": {"name": "Identity:0", "dtype": "DT_FLOAT", "tensorShape": {"dim": [{"size": "-1"}, {"size": "38"}, {"size": "11"}]}}}}, "modelTopology": {"node": [{"name": "StatefulPartitionedCall/ocr_model_v1/dense2/Tensordot/Const", "op": "Const", "attr": {"dtype": {"type": "DT_INT32"}, "value": {"tensor": {"dtype": "DT_INT32", "tensorShape": {"dim": [{"size": "1"}]}}}}}, {"name": "StatefulPartitionedCall/ocr_model_v1/dense2/Tensordot/axes", "op": "Const", "attr": {"dtype": {"type": "DT_INT32"}, "value": {"tensor": {"dtype": "DT_INT32", "tensorShape": {"dim": [{"size": "1"}]}}}}}, {"name": "StatefulPartitionedCall/ocr_model_v1/dense2/Tensordot/GatherV2_1/axis", "op": "Const", "attr": {"dtype": {"type": "DT_INT32"}, "value": {"tensor": {"dtype": "DT_INT32", "tensorShape": {}}}}}, {"name": "StatefulPartitionedCall/ocr_model_v1/dense2/Tensordot/Const_1", "op": "Const", "attr": {"dtype": {"type": "DT_INT32"}, "value": {"tensor": {"dtype": "DT_INT32", "tensorShape": {"dim": [{"size": "1"}]}}}}}, {"name": "StatefulPartitionedCall/ocr_model_v1/dense2/Tensordot/ReadVariableOp", "op": "Const", "attr": {"dtype": {"type": "DT_FLOAT"}, "value": {"tensor": {"dtype": "DT_FLOAT", "tensorShape": {"dim": [{"size": "128"}, {"size": "11"}]}}}}}, {"name": "StatefulPartitionedCall/ocr_model_v1/bidirectional_1/forward_lstm_1/PartitionedCall/TensorArrayV2_1/element_shape", "op": "Const", "attr": {"dtype": {"type": "DT_INT32"}, "value": {"tensor": {"dtype": "DT_INT32", "tensorShape": {"dim": [{"size": "2"}]}}}}}, {"name": "StatefulPartitionedCall/ocr_model_v1/bidirectional_1/forward_lstm_1/zeros_1/packed/1", "op": "Const", "attr": {"value": {"tensor": {"dtype": "DT_INT32", "tensorShape": {}}}, "dtype": {"type": "DT_INT32"}}}, {"name": "StatefulPartitionedCall/ocr_model_v1/bidirectional_1/forward_lstm_1/zeros_1/Const", "op": "Const", "attr": {"dtype": {"type": "DT_FLOAT"}, "value": {"tensor": {"dtype": "DT_FLOAT", "tensorShape": {}}}}}, {"name": "StatefulPartitionedCall/ocr_model_v1/bidirectional_1/forward_lstm_1/PartitionedCall/TensorArrayUnstack/TensorListFromTensor/element_shape", "op": "Const", "attr": {"dtype": {"type": "DT_INT32"}, "value": {"tensor": {"dtype": "DT_INT32", "tensorShape": {"dim": [{"size": "2"}]}}}}}, {"name": "StatefulPartitionedCall/ocr_model_v1/bidirectional_1/forward_lstm_1/Read/ReadVariableOp", "op": "Const", "attr": {"value": {"tensor": {"dtype": "DT_FLOAT", "tensorShape": {"dim": [{"size": "256"}, {"size": "256"}]}}}, "dtype": {"type": "DT_FLOAT"}}}, {"name": "StatefulPartitionedCall/ocr_model_v1/bidirectional_1/forward_lstm_1/strided_slice/stack", "op": "Const", "attr": {"value": {"tensor": {"dtype": "DT_INT32", "tensorShape": {"dim": [{"size": "1"}]}}}, "dtype": {"type": "DT_INT32"}}}, {"name": "StatefulPartitionedCall/ocr_model_v1/bidirectional_1/forward_lstm_1/strided_slice/stack_1", "op": "Const", "attr": {"value": {"tensor": {"dtype": "DT_INT32", "tensorShape": {"dim": [{"size": "1"}]}}}, "dtype": {"type": "DT_INT32"}}}, {"name": "StatefulPartitionedCall/ocr_model_v1/bidirectional_1/forward_lstm_1/strided_slice/stack_2", "op": "Const", "attr": {"dtype": {"type": "DT_INT32"}, "value": {"tensor": {"dtype": "DT_INT32", "tensorShape": {"dim": [{"size": "1"}]}}}}}, {"name": "StatefulPartitionedCall/ocr_model_v1/bidirectional_1/forward_lstm_1/zeros/packed/1", "op": "Const", "attr": {"dtype": {"type": "DT_INT32"}, "value": {"tensor": {"dtype": "DT_INT32", "tensorShape": {}}}}}, {"name": "StatefulPartitionedCall/ocr_model_v1/bidirectional_1/forward_lstm_1/zeros/Const", "op": "Const", "attr": {"dtype": {"type": "DT_FLOAT"}, "value": {"tensor": {"dtype": "DT_FLOAT", "tensorShape": {}}}}}, {"name": "StatefulPartitionedCall/ocr_model_v1/bidirectional_1/forward_lstm_1/Read_1/ReadVariableOp", "op": "Const", "attr": {"dtype": {"type": "DT_FLOAT"}, "value": {"tensor": {"dtype": "DT_FLOAT", "tensorShape": {"dim": [{"size": "64"}, {"size": "256"}]}}}}}, {"name": "StatefulPartitionedCall/ocr_model_v1/bidirectional_1/forward_lstm_1/Read_2/ReadVariableOp", "op": "Const", "attr": {"dtype": {"type": "DT_FLOAT"}, "value": {"tensor": {"dtype": "DT_FLOAT", "tensorShape": {"dim": [{"size": "256"}]}}}}}, {"name": "StatefulPartitionedCall/ocr_model_v1/bidirectional_1/forward_lstm_1/PartitionedCall/time", "op": "Const", "attr": {"value": {"tensor": {"dtype": "DT_INT32", "tensorShape": {}}}, "dtype": {"type": "DT_INT32"}}}, {"name": "StatefulPartitionedCall/ocr_model_v1/bidirectional_1/forward_lstm_1/PartitionedCall/transpose/perm", "op": "Const", "attr": {"value": {"tensor": {"dtype": "DT_INT32", "tensorShape": {"dim": [{"size": "3"}]}}}, "dtype": {"type": "DT_INT32"}}}, {"name": "StatefulPartitionedCall/ocr_model_v1/bidirectional_1/forward_lstm_1/PartitionedCall/strided_slice/stack", "op": "Const", "attr": {"dtype": {"type": "DT_INT32"}, "value": {"tensor": {"dtype": "DT_INT32", "tensorShape": {"dim": [{"size": "1"}]}}}}}, {"name": "StatefulPartitionedCall/ocr_model_v1/bidirectional_1/forward_lstm_1/PartitionedCall/strided_slice/stack_1", "op": "Const", "attr": {"dtype": {"type": "DT_INT32"}, "value": {"tensor": {"dtype": "DT_INT32", "tensorShape": {"dim": [{"size": "1"}]}}}}}, {"name": "StatefulPartitionedCall/ocr_model_v1/bidirectional_1/forward_lstm_1/PartitionedCall/strided_slice/stack_2", "op": "Const", "attr": {"value": {"tensor": {"dtype": "DT_INT32", "tensorShape": {"dim": [{"size": "1"}]}}}, "dtype": {"type": "DT_INT32"}}}, {"name": "StatefulPartitionedCall/ocr_model_v1/bidirectional_1/forward_lstm_1/PartitionedCall/while/loop_counter", "op": "Const", "attr": {"dtype": {"type": "DT_INT32"}, "value": {"tensor": {"dtype": "DT_INT32", "tensorShape": {}}}}}, {"name": "StatefulPartitionedCall/ocr_model_v1/bidirectional_1/forward_lstm_1/PartitionedCall/TensorArrayV2Stack/TensorListStack/element_shape", "op": "Const", "attr": {"value": {"tensor": {"dtype": "DT_INT32", "tensorShape": {"dim": [{"size": "2"}]}}}, "dtype": {"type": "DT_INT32"}}}, {"name": "StatefulPartitionedCall/ocr_model_v1/bidirectional_1/forward_lstm_1/PartitionedCall/transpose_1/perm", "op": "Const", "attr": {"value": {"tensor": {"dtype": "DT_INT32", "tensorShape": {"dim": [{"size": "3"}]}}}, "dtype": {"type": "DT_INT32"}}}, {"name": "StatefulPartitionedCall/ocr_model_v1/bidirectional_1/backward_lstm_1/PartitionedCall/TensorArrayV2_1/element_shape", "op": "Const", "attr": {"dtype": {"type": "DT_INT32"}, "value": {"tensor": {"dtype": "DT_INT32", "tensorShape": {"dim": [{"size": "2"}]}}}}}, {"name": "StatefulPartitionedCall/ocr_model_v1/bidirectional_1/backward_lstm_1/zeros_1/packed/1", "op": "Const", "attr": {"dtype": {"type": "DT_INT32"}, "value": {"tensor": {"dtype": "DT_INT32", "tensorShape": {}}}}}, {"name": "StatefulPartitionedCall/ocr_model_v1/bidirectional_1/backward_lstm_1/zeros_1/Const", "op": "Const", "attr": {"value": {"tensor": {"dtype": "DT_FLOAT", "tensorShape": {}}}, "dtype": {"type": "DT_FLOAT"}}}, {"name": "StatefulPartitionedCall/ocr_model_v1/bidirectional_1/backward_lstm_1/PartitionedCall/ReverseV2/axis", "op": "Const", "attr": {"dtype": {"type": "DT_INT32"}, "value": {"tensor": {"dtype": "DT_INT32", "tensorShape": {"dim": [{"size": "1"}]}}}}}, {"name": "StatefulPartitionedCall/ocr_model_v1/bidirectional_1/backward_lstm_1/PartitionedCall/TensorArrayUnstack/TensorListFromTensor/element_shape", "op": "Const", "attr": {"value": {"tensor": {"dtype": "DT_INT32", "tensorShape": {"dim": [{"size": "2"}]}}}, "dtype": {"type": "DT_INT32"}}}, {"name": "StatefulPartitionedCall/ocr_model_v1/bidirectional_1/backward_lstm_1/Read/ReadVariableOp", "op": "Const", "attr": {"value": {"tensor": {"dtype": "DT_FLOAT", "tensorShape": {"dim": [{"size": "256"}, {"size": "256"}]}}}, "dtype": {"type": "DT_FLOAT"}}}, {"name": "StatefulPartitionedCall/ocr_model_v1/bidirectional_1/backward_lstm_1/strided_slice/stack", "op": "Const", "attr": {"dtype": {"type": "DT_INT32"}, "value": {"tensor": {"dtype": "DT_INT32", "tensorShape": {"dim": [{"size": "1"}]}}}}}, {"name": "StatefulPartitionedCall/ocr_model_v1/bidirectional_1/backward_lstm_1/strided_slice/stack_1", "op": "Const", "attr": {"value": {"tensor": {"dtype": "DT_INT32", "tensorShape": {"dim": [{"size": "1"}]}}}, "dtype": {"type": "DT_INT32"}}}, {"name": "StatefulPartitionedCall/ocr_model_v1/bidirectional_1/backward_lstm_1/strided_slice/stack_2", "op": "Const", "attr": {"dtype": {"type": "DT_INT32"}, "value": {"tensor": {"dtype": "DT_INT32", "tensorShape": {"dim": [{"size": "1"}]}}}}}, {"name": "StatefulPartitionedCall/ocr_model_v1/bidirectional_1/backward_lstm_1/zeros/packed/1", "op": "Const", "attr": {"value": {"tensor": {"dtype": "DT_INT32", "tensorShape": {}}}, "dtype": {"type": "DT_INT32"}}}, {"name": "StatefulPartitionedCall/ocr_model_v1/bidirectional_1/backward_lstm_1/zeros/Const", "op": "Const", "attr": {"dtype": {"type": "DT_FLOAT"}, "value": {"tensor": {"dtype": "DT_FLOAT", "tensorShape": {}}}}}, {"name": "StatefulPartitionedCall/ocr_model_v1/bidirectional_1/backward_lstm_1/Read_1/ReadVariableOp", "op": "Const", "attr": {"value": {"tensor": {"dtype": "DT_FLOAT", "tensorShape": {"dim": [{"size": "64"}, {"size": "256"}]}}}, "dtype": {"type": "DT_FLOAT"}}}, {"name": "StatefulPartitionedCall/ocr_model_v1/bidirectional_1/backward_lstm_1/Read_2/ReadVariableOp", "op": "Const", "attr": {"value": {"tensor": {"dtype": "DT_FLOAT", "tensorShape": {"dim": [{"size": "256"}]}}}, "dtype": {"type": "DT_FLOAT"}}}, {"name": "StatefulPartitionedCall/ocr_model_v1/bidirectional_1/backward_lstm_1/PartitionedCall/time", "op": "Const", "attr": {"dtype": {"type": "DT_INT32"}, "value": {"tensor": {"dtype": "DT_INT32", "tensorShape": {}}}}}, {"name": "StatefulPartitionedCall/ocr_model_v1/bidirectional/forward_lstm/PartitionedCall/TensorArrayV2_1/element_shape", "op": "Const", "attr": {"dtype": {"type": "DT_INT32"}, "value": {"tensor": {"dtype": "DT_INT32", "tensorShape": {"dim": [{"size": "2"}]}}}}}, {"name": "StatefulPartitionedCall/ocr_model_v1/bidirectional/forward_lstm/zeros_1/packed/1", "op": "Const", "attr": {"value": {"tensor": {"dtype": "DT_INT32", "tensorShape": {}}}, "dtype": {"type": "DT_INT32"}}}, {"name": "StatefulPartitionedCall/ocr_model_v1/bidirectional/forward_lstm/zeros_1/Const", "op": "Const", "attr": {"dtype": {"type": "DT_FLOAT"}, "value": {"tensor": {"dtype": "DT_FLOAT", "tensorShape": {}}}}}, {"name": "StatefulPartitionedCall/ocr_model_v1/bidirectional/forward_lstm/PartitionedCall/TensorArrayUnstack/TensorListFromTensor/element_shape", "op": "Const", "attr": {"dtype": {"type": "DT_INT32"}, "value": {"tensor": {"dtype": "DT_INT32", "tensorShape": {"dim": [{"size": "2"}]}}}}}, {"name": "StatefulPartitionedCall/ocr_model_v1/bidirectional/forward_lstm/Read/ReadVariableOp", "op": "Const", "attr": {"value": {"tensor": {"dtype": "DT_FLOAT", "tensorShape": {"dim": [{"size": "64"}, {"size": "512"}]}}}, "dtype": {"type": "DT_FLOAT"}}}, {"name": "StatefulPartitionedCall/ocr_model_v1/bidirectional/forward_lstm/strided_slice/stack", "op": "Const", "attr": {"dtype": {"type": "DT_INT32"}, "value": {"tensor": {"dtype": "DT_INT32", "tensorShape": {"dim": [{"size": "1"}]}}}}}, {"name": "StatefulPartitionedCall/ocr_model_v1/bidirectional/forward_lstm/strided_slice/stack_1", "op": "Const", "attr": {"value": {"tensor": {"dtype": "DT_INT32", "tensorShape": {"dim": [{"size": "1"}]}}}, "dtype": {"type": "DT_INT32"}}}, {"name": "StatefulPartitionedCall/ocr_model_v1/bidirectional/forward_lstm/strided_slice/stack_2", "op": "Const", "attr": {"value": {"tensor": {"dtype": "DT_INT32", "tensorShape": {"dim": [{"size": "1"}]}}}, "dtype": {"type": "DT_INT32"}}}, {"name": "StatefulPartitionedCall/ocr_model_v1/bidirectional/forward_lstm/zeros/packed/1", "op": "Const", "attr": {"value": {"tensor": {"dtype": "DT_INT32", "tensorShape": {}}}, "dtype": {"type": "DT_INT32"}}}, {"name": "StatefulPartitionedCall/ocr_model_v1/bidirectional/forward_lstm/zeros/Const", "op": "Const", "attr": {"value": {"tensor": {"dtype": "DT_FLOAT", "tensorShape": {}}}, "dtype": {"type": "DT_FLOAT"}}}, {"name": "StatefulPartitionedCall/ocr_model_v1/bidirectional/forward_lstm/Read_1/ReadVariableOp", "op": "Const", "attr": {"dtype": {"type": "DT_FLOAT"}, "value": {"tensor": {"dtype": "DT_FLOAT", "tensorShape": {"dim": [{"size": "128"}, {"size": "512"}]}}}}}, {"name": "StatefulPartitionedCall/ocr_model_v1/bidirectional/forward_lstm/Read_2/ReadVariableOp", "op": "Const", "attr": {"value": {"tensor": {"dtype": "DT_FLOAT", "tensorShape": {"dim": [{"size": "512"}]}}}, "dtype": {"type": "DT_FLOAT"}}}, {"name": "StatefulPartitionedCall/ocr_model_v1/bidirectional/forward_lstm/PartitionedCall/time", "op": "Const", "attr": {"value": {"tensor": {"dtype": "DT_INT32", "tensorShape": {}}}, "dtype": {"type": "DT_INT32"}}}, {"name": "StatefulPartitionedCall/ocr_model_v1/bidirectional/forward_lstm/PartitionedCall/transpose/perm", "op": "Const", "attr": {"value": {"tensor": {"dtype": "DT_INT32", "tensorShape": {"dim": [{"size": "3"}]}}}, "dtype": {"type": "DT_INT32"}}}, {"name": "StatefulPartitionedCall/ocr_model_v1/bidirectional/forward_lstm/PartitionedCall/strided_slice/stack", "op": "Const", "attr": {"value": {"tensor": {"dtype": "DT_INT32", "tensorShape": {"dim": [{"size": "1"}]}}}, "dtype": {"type": "DT_INT32"}}}, {"name": "StatefulPartitionedCall/ocr_model_v1/bidirectional/forward_lstm/PartitionedCall/strided_slice/stack_1", "op": "Const", "attr": {"value": {"tensor": {"dtype": "DT_INT32", "tensorShape": {"dim": [{"size": "1"}]}}}, "dtype": {"type": "DT_INT32"}}}, {"name": "StatefulPartitionedCall/ocr_model_v1/bidirectional/forward_lstm/PartitionedCall/strided_slice/stack_2", "op": "Const", "attr": {"dtype": {"type": "DT_INT32"}, "value": {"tensor": {"dtype": "DT_INT32", "tensorShape": {"dim": [{"size": "1"}]}}}}}, {"name": "StatefulPartitionedCall/ocr_model_v1/bidirectional/forward_lstm/PartitionedCall/while/loop_counter", "op": "Const", "attr": {"value": {"tensor": {"dtype": "DT_INT32", "tensorShape": {}}}, "dtype": {"type": "DT_INT32"}}}, {"name": "StatefulPartitionedCall/ocr_model_v1/bidirectional/forward_lstm/PartitionedCall/TensorArrayV2Stack/TensorListStack/element_shape", "op": "Const", "attr": {"dtype": {"type": "DT_INT32"}, "value": {"tensor": {"dtype": "DT_INT32", "tensorShape": {"dim": [{"size": "2"}]}}}}}, {"name": "StatefulPartitionedCall/ocr_model_v1/bidirectional/forward_lstm/PartitionedCall/transpose_1/perm", "op": "Const", "attr": {"dtype": {"type": "DT_INT32"}, "value": {"tensor": {"dtype": "DT_INT32", "tensorShape": {"dim": [{"size": "3"}]}}}}}, {"name": "StatefulPartitionedCall/ocr_model_v1/bidirectional/backward_lstm/PartitionedCall/TensorArrayV2_1/element_shape", "op": "Const", "attr": {"dtype": {"type": "DT_INT32"}, "value": {"tensor": {"dtype": "DT_INT32", "tensorShape": {"dim": [{"size": "2"}]}}}}}, {"name": "StatefulPartitionedCall/ocr_model_v1/bidirectional/backward_lstm/zeros_1/packed/1", "op": "Const", "attr": {"dtype": {"type": "DT_INT32"}, "value": {"tensor": {"dtype": "DT_INT32", "tensorShape": {}}}}}, {"name": "StatefulPartitionedCall/ocr_model_v1/bidirectional/backward_lstm/zeros_1/Const", "op": "Const", "attr": {"value": {"tensor": {"dtype": "DT_FLOAT", "tensorShape": {}}}, "dtype": {"type": "DT_FLOAT"}}}, {"name": "StatefulPartitionedCall/ocr_model_v1/bidirectional/backward_lstm/PartitionedCall/ReverseV2/axis", "op": "Const", "attr": {"value": {"tensor": {"dtype": "DT_INT32", "tensorShape": {"dim": [{"size": "1"}]}}}, "dtype": {"type": "DT_INT32"}}}, {"name": "StatefulPartitionedCall/ocr_model_v1/bidirectional/backward_lstm/PartitionedCall/TensorArrayUnstack/TensorListFromTensor/element_shape", "op": "Const", "attr": {"dtype": {"type": "DT_INT32"}, "value": {"tensor": {"dtype": "DT_INT32", "tensorShape": {"dim": [{"size": "2"}]}}}}}, {"name": "StatefulPartitionedCall/ocr_model_v1/bidirectional/backward_lstm/Read/ReadVariableOp", "op": "Const", "attr": {"dtype": {"type": "DT_FLOAT"}, "value": {"tensor": {"dtype": "DT_FLOAT", "tensorShape": {"dim": [{"size": "64"}, {"size": "512"}]}}}}}, {"name": "StatefulPartitionedCall/ocr_model_v1/bidirectional/backward_lstm/strided_slice/stack", "op": "Const", "attr": {"value": {"tensor": {"dtype": "DT_INT32", "tensorShape": {"dim": [{"size": "1"}]}}}, "dtype": {"type": "DT_INT32"}}}, {"name": "StatefulPartitionedCall/ocr_model_v1/bidirectional/backward_lstm/strided_slice/stack_1", "op": "Const", "attr": {"dtype": {"type": "DT_INT32"}, "value": {"tensor": {"dtype": "DT_INT32", "tensorShape": {"dim": [{"size": "1"}]}}}}}, {"name": "StatefulPartitionedCall/ocr_model_v1/bidirectional/backward_lstm/strided_slice/stack_2", "op": "Const", "attr": {"dtype": {"type": "DT_INT32"}, "value": {"tensor": {"dtype": "DT_INT32", "tensorShape": {"dim": [{"size": "1"}]}}}}}, {"name": "StatefulPartitionedCall/ocr_model_v1/bidirectional/backward_lstm/zeros/packed/1", "op": "Const", "attr": {"dtype": {"type": "DT_INT32"}, "value": {"tensor": {"dtype": "DT_INT32", "tensorShape": {}}}}}, {"name": "StatefulPartitionedCall/ocr_model_v1/bidirectional/backward_lstm/zeros/Const", "op": "Const", "attr": {"value": {"tensor": {"dtype": "DT_FLOAT", "tensorShape": {}}}, "dtype": {"type": "DT_FLOAT"}}}, {"name": "StatefulPartitionedCall/ocr_model_v1/bidirectional/backward_lstm/Read_1/ReadVariableOp", "op": "Const", "attr": {"value": {"tensor": {"dtype": "DT_FLOAT", "tensorShape": {"dim": [{"size": "128"}, {"size": "512"}]}}}, "dtype": {"type": "DT_FLOAT"}}}, {"name": "StatefulPartitionedCall/ocr_model_v1/bidirectional/backward_lstm/Read_2/ReadVariableOp", "op": "Const", "attr": {"value": {"tensor": {"dtype": "DT_FLOAT", "tensorShape": {"dim": [{"size": "512"}]}}}, "dtype": {"type": "DT_FLOAT"}}}, {"name": "StatefulPartitionedCall/ocr_model_v1/bidirectional/backward_lstm/PartitionedCall/time", "op": "Const", "attr": {"dtype": {"type": "DT_INT32"}, "value": {"tensor": {"dtype": "DT_INT32", "tensorShape": {}}}}}, {"name": "StatefulPartitionedCall/ocr_model_v1/dense1/Tensordot/Const", "op": "Const", "attr": {"dtype": {"type": "DT_INT32"}, "value": {"tensor": {"dtype": "DT_INT32", "tensorShape": {"dim": [{"size": "1"}]}}}}}, {"name": "StatefulPartitionedCall/ocr_model_v1/dense1/Tensordot/axes", "op": "Const", "attr": {"dtype": {"type": "DT_INT32"}, "value": {"tensor": {"dtype": "DT_INT32", "tensorShape": {"dim": [{"size": "1"}]}}}}}, {"name": "StatefulPartitionedCall/ocr_model_v1/dense1/Tensordot/GatherV2_1/axis", "op": "Const", "attr": {"value": {"tensor": {"dtype": "DT_INT32", "tensorShape": {}}}, "dtype": {"type": "DT_INT32"}}}, {"name": "StatefulPartitionedCall/ocr_model_v1/dense1/Tensordot/Const_1", "op": "Const", "attr": {"dtype": {"type": "DT_INT32"}, "value": {"tensor": {"dtype": "DT_INT32", "tensorShape": {"dim": [{"size": "1"}]}}}}}, {"name": "StatefulPartitionedCall/ocr_model_v1/dense1/Tensordot/ReadVariableOp", "op": "Const", "attr": {"value": {"tensor": {"dtype": "DT_FLOAT", "tensorShape": {"dim": [{"size": "768"}, {"size": "64"}]}}}, "dtype": {"type": "DT_FLOAT"}}}, {"name": "StatefulPartitionedCall/ocr_model_v1/Conv1/Conv2D/ReadVariableOp", "op": "Const", "attr": {"dtype": {"type": "DT_FLOAT"}, "value": {"tensor": {"dtype": "DT_FLOAT", "tensorShape": {"dim": [{"size": "3"}, {"size": "3"}, {"size": "1"}, {"size": "32"}]}}}}}, {"name": "StatefulPartitionedCall/ocr_model_v1/Conv1/BiasAdd/ReadVariableOp", "op": "Const", "attr": {"dtype": {"type": "DT_FLOAT"}, "value": {"tensor": {"dtype": "DT_FLOAT", "tensorShape": {"dim": [{"size": "32"}]}}}}}, {"name": "StatefulPartitionedCall/ocr_model_v1/Conv2/Conv2D/ReadVariableOp", "op": "Const", "attr": {"value": {"tensor": {"dtype": "DT_FLOAT", "tensorShape": {"dim": [{"size": "3"}, {"size": "3"}, {"size": "32"}, {"size": "64"}]}}}, "dtype": {"type": "DT_FLOAT"}}}, {"name": "StatefulPartitionedCall/ocr_model_v1/Conv2/BiasAdd/ReadVariableOp", "op": "Const", "attr": {"dtype": {"type": "DT_FLOAT"}, "value": {"tensor": {"dtype": "DT_FLOAT", "tensorShape": {"dim": [{"size": "64"}]}}}}}, {"name": "StatefulPartitionedCall/ocr_model_v1/reshape/strided_slice/stack", "op": "Const", "attr": {"value": {"tensor": {"dtype": "DT_INT32", "tensorShape": {"dim": [{"size": "1"}]}}}, "dtype": {"type": "DT_INT32"}}}, {"name": "StatefulPartitionedCall/ocr_model_v1/reshape/strided_slice/stack_1", "op": "Const", "attr": {"value": {"tensor": {"dtype": "DT_INT32", "tensorShape": {"dim": [{"size": "1"}]}}}, "dtype": {"type": "DT_INT32"}}}, {"name": "StatefulPartitionedCall/ocr_model_v1/reshape/strided_slice/stack_2", "op": "Const", "attr": {"dtype": {"type": "DT_INT32"}, "value": {"tensor": {"dtype": "DT_INT32", "tensorShape": {"dim": [{"size": "1"}]}}}}}, {"name": "StatefulPartitionedCall/ocr_model_v1/reshape/Reshape/shape/1", "op": "Const", "attr": {"dtype": {"type": "DT_INT32"}, "value": {"tensor": {"dtype": "DT_INT32", "tensorShape": {}}}}}, {"name": "StatefulPartitionedCall/ocr_model_v1/reshape/Reshape/shape/2", "op": "Const", "attr": {"dtype": {"type": "DT_INT32"}, "value": {"tensor": {"dtype": "DT_INT32", "tensorShape": {}}}}}, {"name": "StatefulPartitionedCall/ocr_model_v1/dense1/Tensordot/free", "op": "Const", "attr": {"dtype": {"type": "DT_INT32"}, "value": {"tensor": {"dtype": "DT_INT32", "tensorShape": {"dim": [{"size": "2"}]}}}}}, {"name": "StatefulPartitionedCall/ocr_model_v1/dense1/Tensordot/GatherV2/axis", "op": "Const", "attr": {"value": {"tensor": {"dtype": "DT_INT32", "tensorShape": {}}}, "dtype": {"type": "DT_INT32"}}}, {"name": "StatefulPartitionedCall/ocr_model_v1/dense1/Tensordot/Const_2", "op": "Const", "attr": {"value": {"tensor": {"dtype": "DT_INT32", "tensorShape": {"dim": [{"size": "1"}]}}}, "dtype": {"type": "DT_INT32"}}}, {"name": "StatefulPartitionedCall/ocr_model_v1/dense1/Tensordot/concat_1/axis", "op": "Const", "attr": {"value": {"tensor": {"dtype": "DT_INT32", "tensorShape": {}}}, "dtype": {"type": "DT_INT32"}}}, {"name": "StatefulPartitionedCall/ocr_model_v1/dense1/BiasAdd/ReadVariableOp", "op": "Const", "attr": {"dtype": {"type": "DT_FLOAT"}, "value": {"tensor": {"dtype": "DT_FLOAT", "tensorShape": {"dim": [{"size": "64"}]}}}}}, {"name": "StatefulPartitionedCall/ocr_model_v1/bidirectional/backward_lstm/PartitionedCall/transpose/perm", "op": "Const", "attr": {"dtype": {"type": "DT_INT32"}, "value": {"tensor": {"dtype": "DT_INT32", "tensorShape": {"dim": [{"size": "3"}]}}}}}, {"name": "StatefulPartitionedCall/ocr_model_v1/bidirectional/backward_lstm/PartitionedCall/strided_slice/stack", "op": "Const", "attr": {"value": {"tensor": {"dtype": "DT_INT32", "tensorShape": {"dim": [{"size": "1"}]}}}, "dtype": {"type": "DT_INT32"}}}, {"name": "StatefulPartitionedCall/ocr_model_v1/bidirectional/backward_lstm/PartitionedCall/strided_slice/stack_1", "op": "Const", "attr": {"value": {"tensor": {"dtype": "DT_INT32", "tensorShape": {"dim": [{"size": "1"}]}}}, "dtype": {"type": "DT_INT32"}}}, {"name": "StatefulPartitionedCall/ocr_model_v1/bidirectional/backward_lstm/PartitionedCall/strided_slice/stack_2", "op": "Const", "attr": {"dtype": {"type": "DT_INT32"}, "value": {"tensor": {"dtype": "DT_INT32", "tensorShape": {"dim": [{"size": "1"}]}}}}}, {"name": "StatefulPartitionedCall/ocr_model_v1/bidirectional/backward_lstm/PartitionedCall/while/loop_counter", "op": "Const", "attr": {"dtype": {"type": "DT_INT32"}, "value": {"tensor": {"dtype": "DT_INT32", "tensorShape": {}}}}}, {"name": "StatefulPartitionedCall/ocr_model_v1/bidirectional/backward_lstm/PartitionedCall/TensorArrayV2Stack/TensorListStack/element_shape", "op": "Const", "attr": {"value": {"tensor": {"dtype": "DT_INT32", "tensorShape": {"dim": [{"size": "2"}]}}}, "dtype": {"type": "DT_INT32"}}}, {"name": "StatefulPartitionedCall/ocr_model_v1/bidirectional/backward_lstm/PartitionedCall/transpose_1/perm", "op": "Const", "attr": {"dtype": {"type": "DT_INT32"}, "value": {"tensor": {"dtype": "DT_INT32", "tensorShape": {"dim": [{"size": "3"}]}}}}}, {"name": "StatefulPartitionedCall/ocr_model_v1/bidirectional/ReverseV2/axis", "op": "Const", "attr": {"value": {"tensor": {"dtype": "DT_INT32", "tensorShape": {"dim": [{"size": "1"}]}}}, "dtype": {"type": "DT_INT32"}}}, {"name": "StatefulPartitionedCall/ocr_model_v1/bidirectional/concat/axis", "op": "Const", "attr": {"value": {"tensor": {"dtype": "DT_INT32", "tensorShape": {}}}, "dtype": {"type": "DT_INT32"}}}, {"name": "StatefulPartitionedCall/ocr_model_v1/bidirectional_1/backward_lstm_1/PartitionedCall/transpose/perm", "op": "Const", "attr": {"dtype": {"type": "DT_INT32"}, "value": {"tensor": {"dtype": "DT_INT32", "tensorShape": {"dim": [{"size": "3"}]}}}}}, {"name": "StatefulPartitionedCall/ocr_model_v1/bidirectional_1/backward_lstm_1/PartitionedCall/strided_slice/stack", "op": "Const", "attr": {"value": {"tensor": {"dtype": "DT_INT32", "tensorShape": {"dim": [{"size": "1"}]}}}, "dtype": {"type": "DT_INT32"}}}, {"name": "StatefulPartitionedCall/ocr_model_v1/bidirectional_1/backward_lstm_1/PartitionedCall/strided_slice/stack_1", "op": "Const", "attr": {"value": {"tensor": {"dtype": "DT_INT32", "tensorShape": {"dim": [{"size": "1"}]}}}, "dtype": {"type": "DT_INT32"}}}, {"name": "StatefulPartitionedCall/ocr_model_v1/bidirectional_1/backward_lstm_1/PartitionedCall/strided_slice/stack_2", "op": "Const", "attr": {"dtype": {"type": "DT_INT32"}, "value": {"tensor": {"dtype": "DT_INT32", "tensorShape": {"dim": [{"size": "1"}]}}}}}, {"name": "StatefulPartitionedCall/ocr_model_v1/bidirectional_1/backward_lstm_1/PartitionedCall/while/loop_counter", "op": "Const", "attr": {"value": {"tensor": {"dtype": "DT_INT32", "tensorShape": {}}}, "dtype": {"type": "DT_INT32"}}}, {"name": "StatefulPartitionedCall/ocr_model_v1/bidirectional_1/backward_lstm_1/PartitionedCall/TensorArrayV2Stack/TensorListStack/element_shape", "op": "Const", "attr": {"value": {"tensor": {"dtype": "DT_INT32", "tensorShape": {"dim": [{"size": "2"}]}}}, "dtype": {"type": "DT_INT32"}}}, {"name": "StatefulPartitionedCall/ocr_model_v1/bidirectional_1/backward_lstm_1/PartitionedCall/transpose_1/perm", "op": "Const", "attr": {"value": {"tensor": {"dtype": "DT_INT32", "tensorShape": {"dim": [{"size": "3"}]}}}, "dtype": {"type": "DT_INT32"}}}, {"name": "StatefulPartitionedCall/ocr_model_v1/bidirectional_1/ReverseV2/axis", "op": "Const", "attr": {"value": {"tensor": {"dtype": "DT_INT32", "tensorShape": {"dim": [{"size": "1"}]}}}, "dtype": {"type": "DT_INT32"}}}, {"name": "StatefulPartitionedCall/ocr_model_v1/bidirectional_1/concat/axis", "op": "Const", "attr": {"value": {"tensor": {"dtype": "DT_INT32", "tensorShape": {}}}, "dtype": {"type": "DT_INT32"}}}, {"name": "StatefulPartitionedCall/ocr_model_v1/dense2/Tensordot/free", "op": "Const", "attr": {"value": {"tensor": {"dtype": "DT_INT32", "tensorShape": {"dim": [{"size": "2"}]}}}, "dtype": {"type": "DT_INT32"}}}, {"name": "StatefulPartitionedCall/ocr_model_v1/dense2/Tensordot/GatherV2/axis", "op": "Const", "attr": {"value": {"tensor": {"dtype": "DT_INT32", "tensorShape": {}}}, "dtype": {"type": "DT_INT32"}}}, {"name": "StatefulPartitionedCall/ocr_model_v1/dense2/Tensordot/Const_2", "op": "Const", "attr": {"dtype": {"type": "DT_INT32"}, "value": {"tensor": {"dtype": "DT_INT32", "tensorShape": {"dim": [{"size": "1"}]}}}}}, {"name": "StatefulPartitionedCall/ocr_model_v1/dense2/Tensordot/concat_1/axis", "op": "Const", "attr": {"value": {"tensor": {"dtype": "DT_INT32", "tensorShape": {}}}, "dtype": {"type": "DT_INT32"}}}, {"name": "StatefulPartitionedCall/ocr_model_v1/dense2/BiasAdd/ReadVariableOp", "op": "Const", "attr": {"value": {"tensor": {"dtype": "DT_FLOAT", "tensorShape": {"dim": [{"size": "11"}]}}}, "dtype": {"type": "DT_FLOAT"}}}, {"name": "image", "op": "Placeholder", "attr": {"dtype": {"type": "DT_FLOAT"}, "shape": {"shape": {"dim": [{"size": "-1"}, {"size": "155"}, {"size": "50"}, {"size": "1"}]}}}}, {"name": "label", "op": "Placeholder", "attr": {"dtype": {"type": "DT_FLOAT"}, "shape": {"shape": {"dim": [{"size": "-1"}, {"size": "-1"}]}}}}, {"name": "StatefulPartitionedCall/ocr_model_v1/bidirectional_1/forward_lstm_1/PartitionedCall/while/enter/_243", "op": "Enter", "input": ["StatefulPartitionedCall/ocr_model_v1/bidirectional_1/forward_lstm_1/Read/ReadVariableOp"], "attr": {"is_constant": {"b": false}, "parallel_iterations": {"i": "32"}, "T": {"type": "DT_FLOAT"}, "frame_name": {"s": "U3RhdGVmdWxQYXJ0aXRpb25lZENhbGwvb2NyX21vZGVsX3YxL2JpZGlyZWN0aW9uYWxfMS9mb3J3YXJkX2xzdG1fMS9QYXJ0aXRpb25lZENhbGwvd2hpbGU="}}}, {"name": "StatefulPartitionedCall/ocr_model_v1/bidirectional_1/forward_lstm_1/PartitionedCall/while/enter/_244", "op": "Enter", "input": ["StatefulPartitionedCall/ocr_model_v1/bidirectional_1/forward_lstm_1/Read_1/ReadVariableOp"], "attr": {"frame_name": {"s": "U3RhdGVmdWxQYXJ0aXRpb25lZENhbGwvb2NyX21vZGVsX3YxL2JpZGlyZWN0aW9uYWxfMS9mb3J3YXJkX2xzdG1fMS9QYXJ0aXRpb25lZENhbGwvd2hpbGU="}, "parallel_iterations": {"i": "32"}, "T": {"type": "DT_FLOAT"}, "is_constant": {"b": false}}}, {"name": "StatefulPartitionedCall/ocr_model_v1/bidirectional_1/forward_lstm_1/PartitionedCall/while/enter/_245", "op": "Enter", "input": ["StatefulPartitionedCall/ocr_model_v1/bidirectional_1/forward_lstm_1/Read_2/ReadVariableOp"], "attr": {"T": {"type": "DT_FLOAT"}, "frame_name": {"s": "U3RhdGVmdWxQYXJ0aXRpb25lZENhbGwvb2NyX21vZGVsX3YxL2JpZGlyZWN0aW9uYWxfMS9mb3J3YXJkX2xzdG1fMS9QYXJ0aXRpb25lZENhbGwvd2hpbGU="}, "parallel_iterations": {"i": "32"}, "is_constant": {"b": false}}}, {"name": "StatefulPartitionedCall/ocr_model_v1/bidirectional_1/forward_lstm_1/PartitionedCall/while/enter/_237", "op": "Enter", "input": ["StatefulPartitionedCall/ocr_model_v1/bidirectional_1/forward_lstm_1/PartitionedCall/time"], "attr": {"frame_name": {"s": "U3RhdGVmdWxQYXJ0aXRpb25lZENhbGwvb2NyX21vZGVsX3YxL2JpZGlyZWN0aW9uYWxfMS9mb3J3YXJkX2xzdG1fMS9QYXJ0aXRpb25lZENhbGwvd2hpbGU="}, "parallel_iterations": {"i": "32"}, "is_constant": {"b": false}, "T": {"type": "DT_INT32"}}}, {"name": "StatefulPartitionedCall/ocr_model_v1/bidirectional_1/forward_lstm_1/PartitionedCall/while/enter/_235", "op": "Enter", "input": ["StatefulPartitionedCall/ocr_model_v1/bidirectional_1/forward_lstm_1/PartitionedCall/while/loop_counter"], "attr": {"parallel_iterations": {"i": "32"}, "T": {"type": "DT_INT32"}, "frame_name": {"s": "U3RhdGVmdWxQYXJ0aXRpb25lZENhbGwvb2NyX21vZGVsX3YxL2JpZGlyZWN0aW9uYWxfMS9mb3J3YXJkX2xzdG1fMS9QYXJ0aXRpb25lZENhbGwvd2hpbGU="}, "is_constant": {"b": false}}}, {"name": "StatefulPartitionedCall/ocr_model_v1/bidirectional_1/backward_lstm_1/PartitionedCall/while/enter/_303", "op": "Enter", "input": ["StatefulPartitionedCall/ocr_model_v1/bidirectional_1/backward_lstm_1/Read/ReadVariableOp"], "attr": {"parallel_iterations": {"i": "32"}, "is_constant": {"b": false}, "T": {"type": "DT_FLOAT"}, "frame_name": {"s": "U3RhdGVmdWxQYXJ0aXRpb25lZENhbGwvb2NyX21vZGVsX3YxL2JpZGlyZWN0aW9uYWxfMS9iYWNrd2FyZF9sc3RtXzEvUGFydGl0aW9uZWRDYWxsL3doaWxl"}}}, {"name": "StatefulPartitionedCall/ocr_model_v1/bidirectional_1/backward_lstm_1/PartitionedCall/while/enter/_304", "op": "Enter", "input": ["StatefulPartitionedCall/ocr_model_v1/bidirectional_1/backward_lstm_1/Read_1/ReadVariableOp"], "attr": {"is_constant": {"b": false}, "parallel_iterations": {"i": "32"}, "T": {"type": "DT_FLOAT"}, "frame_name": {"s": "U3RhdGVmdWxQYXJ0aXRpb25lZENhbGwvb2NyX21vZGVsX3YxL2JpZGlyZWN0aW9uYWxfMS9iYWNrd2FyZF9sc3RtXzEvUGFydGl0aW9uZWRDYWxsL3doaWxl"}}}, {"name": "StatefulPartitionedCall/ocr_model_v1/bidirectional_1/backward_lstm_1/PartitionedCall/while/enter/_305", "op": "Enter", "input": ["StatefulPartitionedCall/ocr_model_v1/bidirectional_1/backward_lstm_1/Read_2/ReadVariableOp"], "attr": {"is_constant": {"b": false}, "T": {"type": "DT_FLOAT"}, "frame_name": {"s": "U3RhdGVmdWxQYXJ0aXRpb25lZENhbGwvb2NyX21vZGVsX3YxL2JpZGlyZWN0aW9uYWxfMS9iYWNrd2FyZF9sc3RtXzEvUGFydGl0aW9uZWRDYWxsL3doaWxl"}, "parallel_iterations": {"i": "32"}}}, {"name": "StatefulPartitionedCall/ocr_model_v1/bidirectional_1/backward_lstm_1/PartitionedCall/while/enter/_297", "op": "Enter", "input": ["StatefulPartitionedCall/ocr_model_v1/bidirectional_1/backward_lstm_1/PartitionedCall/time"], "attr": {"frame_name": {"s": "U3RhdGVmdWxQYXJ0aXRpb25lZENhbGwvb2NyX21vZGVsX3YxL2JpZGlyZWN0aW9uYWxfMS9iYWNrd2FyZF9sc3RtXzEvUGFydGl0aW9uZWRDYWxsL3doaWxl"}, "is_constant": {"b": false}, "T": {"type": "DT_INT32"}, "parallel_iterations": {"i": "32"}}}, {"name": "StatefulPartitionedCall/ocr_model_v1/bidirectional/forward_lstm/PartitionedCall/while/enter/_123", "op": "Enter", "input": ["StatefulPartitionedCall/ocr_model_v1/bidirectional/forward_lstm/Read/ReadVariableOp"], "attr": {"is_constant": {"b": false}, "T": {"type": "DT_FLOAT"}, "frame_name": {"s": "U3RhdGVmdWxQYXJ0aXRpb25lZENhbGwvb2NyX21vZGVsX3YxL2JpZGlyZWN0aW9uYWwvZm9yd2FyZF9sc3RtL1BhcnRpdGlvbmVkQ2FsbC93aGlsZQ=="}, "parallel_iterations": {"i": "32"}}}, {"name": "StatefulPartitionedCall/ocr_model_v1/bidirectional/forward_lstm/PartitionedCall/while/enter/_124", "op": "Enter", "input": ["StatefulPartitionedCall/ocr_model_v1/bidirectional/forward_lstm/Read_1/ReadVariableOp"], "attr": {"parallel_iterations": {"i": "32"}, "T": {"type": "DT_FLOAT"}, "is_constant": {"b": false}, "frame_name": {"s": "U3RhdGVmdWxQYXJ0aXRpb25lZENhbGwvb2NyX21vZGVsX3YxL2JpZGlyZWN0aW9uYWwvZm9yd2FyZF9sc3RtL1BhcnRpdGlvbmVkQ2FsbC93aGlsZQ=="}}}, {"name": "StatefulPartitionedCall/ocr_model_v1/bidirectional/forward_lstm/PartitionedCall/while/enter/_125", "op": "Enter", "input": ["StatefulPartitionedCall/ocr_model_v1/bidirectional/forward_lstm/Read_2/ReadVariableOp"], "attr": {"is_constant": {"b": false}, "T": {"type": "DT_FLOAT"}, "frame_name": {"s": "U3RhdGVmdWxQYXJ0aXRpb25lZENhbGwvb2NyX21vZGVsX3YxL2JpZGlyZWN0aW9uYWwvZm9yd2FyZF9sc3RtL1BhcnRpdGlvbmVkQ2FsbC93aGlsZQ=="}, "parallel_iterations": {"i": "32"}}}, {"name": "StatefulPartitionedCall/ocr_model_v1/bidirectional/forward_lstm/PartitionedCall/while/enter/_117", "op": "Enter", "input": ["StatefulPartitionedCall/ocr_model_v1/bidirectional/forward_lstm/PartitionedCall/time"], "attr": {"is_constant": {"b": false}, "T": {"type": "DT_INT32"}, "frame_name": {"s": "U3RhdGVmdWxQYXJ0aXRpb25lZENhbGwvb2NyX21vZGVsX3YxL2JpZGlyZWN0aW9uYWwvZm9yd2FyZF9sc3RtL1BhcnRpdGlvbmVkQ2FsbC93aGlsZQ=="}, "parallel_iterations": {"i": "32"}}}, {"name": "StatefulPartitionedCall/ocr_model_v1/bidirectional/forward_lstm/PartitionedCall/while/enter/_115", "op": "Enter", "input": ["StatefulPartitionedCall/ocr_model_v1/bidirectional/forward_lstm/PartitionedCall/while/loop_counter"], "attr": {"frame_name": {"s": "U3RhdGVmdWxQYXJ0aXRpb25lZENhbGwvb2NyX21vZGVsX3YxL2JpZGlyZWN0aW9uYWwvZm9yd2FyZF9sc3RtL1BhcnRpdGlvbmVkQ2FsbC93aGlsZQ=="}, "is_constant": {"b": false}, "T": {"type": "DT_INT32"}, "parallel_iterations": {"i": "32"}}}, {"name": "StatefulPartitionedCall/ocr_model_v1/bidirectional/backward_lstm/PartitionedCall/while/enter/_183", "op": "Enter", "input": ["StatefulPartitionedCall/ocr_model_v1/bidirectional/backward_lstm/Read/ReadVariableOp"], "attr": {"is_constant": {"b": false}, "T": {"type": "DT_FLOAT"}, "frame_name": {"s": "U3RhdGVmdWxQYXJ0aXRpb25lZENhbGwvb2NyX21vZGVsX3YxL2JpZGlyZWN0aW9uYWwvYmFja3dhcmRfbHN0bS9QYXJ0aXRpb25lZENhbGwvd2hpbGU="}, "parallel_iterations": {"i": "32"}}}, {"name": "StatefulPartitionedCall/ocr_model_v1/bidirectional/backward_lstm/PartitionedCall/while/enter/_184", "op": "Enter", "input": ["StatefulPartitionedCall/ocr_model_v1/bidirectional/backward_lstm/Read_1/ReadVariableOp"], "attr": {"is_constant": {"b": false}, "frame_name": {"s": "U3RhdGVmdWxQYXJ0aXRpb25lZENhbGwvb2NyX21vZGVsX3YxL2JpZGlyZWN0aW9uYWwvYmFja3dhcmRfbHN0bS9QYXJ0aXRpb25lZENhbGwvd2hpbGU="}, "parallel_iterations": {"i": "32"}, "T": {"type": "DT_FLOAT"}}}, {"name": "StatefulPartitionedCall/ocr_model_v1/bidirectional/backward_lstm/PartitionedCall/while/enter/_185", "op": "Enter", "input": ["StatefulPartitionedCall/ocr_model_v1/bidirectional/backward_lstm/Read_2/ReadVariableOp"], "attr": {"parallel_iterations": {"i": "32"}, "frame_name": {"s": "U3RhdGVmdWxQYXJ0aXRpb25lZENhbGwvb2NyX21vZGVsX3YxL2JpZGlyZWN0aW9uYWwvYmFja3dhcmRfbHN0bS9QYXJ0aXRpb25lZENhbGwvd2hpbGU="}, "is_constant": {"b": false}, "T": {"type": "DT_FLOAT"}}}, {"name": "StatefulPartitionedCall/ocr_model_v1/bidirectional/backward_lstm/PartitionedCall/while/enter/_177", "op": "Enter", "input": ["StatefulPartitionedCall/ocr_model_v1/bidirectional/backward_lstm/PartitionedCall/time"], "attr": {"parallel_iterations": {"i": "32"}, "T": {"type": "DT_INT32"}, "frame_name": {"s": "U3RhdGVmdWxQYXJ0aXRpb25lZENhbGwvb2NyX21vZGVsX3YxL2JpZGlyZWN0aW9uYWwvYmFja3dhcmRfbHN0bS9QYXJ0aXRpb25lZENhbGwvd2hpbGU="}, "is_constant": {"b": false}}}, {"name": "StatefulPartitionedCall/ocr_model_v1/bidirectional/backward_lstm/PartitionedCall/while/enter/_175", "op": "Enter", "input": ["StatefulPartitionedCall/ocr_model_v1/bidirectional/backward_lstm/PartitionedCall/while/loop_counter"], "attr": {"is_constant": {"b": false}, "frame_name": {"s": "U3RhdGVmdWxQYXJ0aXRpb25lZENhbGwvb2NyX21vZGVsX3YxL2JpZGlyZWN0aW9uYWwvYmFja3dhcmRfbHN0bS9QYXJ0aXRpb25lZENhbGwvd2hpbGU="}, "parallel_iterations": {"i": "32"}, "T": {"type": "DT_INT32"}}}, {"name": "StatefulPartitionedCall/ocr_model_v1/bidirectional_1/backward_lstm_1/PartitionedCall/while/enter/_295", "op": "Enter", "input": ["StatefulPartitionedCall/ocr_model_v1/bidirectional_1/backward_lstm_1/PartitionedCall/while/loop_counter"], "attr": {"parallel_iterations": {"i": "32"}, "T": {"type": "DT_INT32"}, "frame_name": {"s": "U3RhdGVmdWxQYXJ0aXRpb25lZENhbGwvb2NyX21vZGVsX3YxL2JpZGlyZWN0aW9uYWxfMS9iYWNrd2FyZF9sc3RtXzEvUGFydGl0aW9uZWRDYWxsL3doaWxl"}, "is_constant": {"b": false}}}, {"name": "StatefulPartitionedCall/ocr_model_v1/Conv1/Relu", "op": "_FusedConv2D", "input": ["image", "StatefulPartitionedCall/ocr_model_v1/Conv1/Conv2D/ReadVariableOp", "StatefulPartitionedCall/ocr_model_v1/Conv1/BiasAdd/ReadVariableOp"], "device": "/device:CPU:0", "attr": {"padding": {"s": "U0FNRQ=="}, "data_format": {"s": "TkhXQw=="}, "fused_ops": {"list": {"s": ["Qmlhc0FkZA==", "UmVsdQ=="]}}, "explicit_paddings": {"list": {}}, "dilations": {"list": {"i": ["1", "1", "1", "1"]}}, "strides": {"list": {"i": ["1", "1", "1", "1"]}}, "epsilon": {"f": 0.0}, "T": {"type": "DT_FLOAT"}, "num_args": {"i": "1"}, "use_cudnn_on_gpu": {"b": true}}}, {"name": "StatefulPartitionedCall/ocr_model_v1/bidirectional_1/forward_lstm_1/PartitionedCall/while/merge/_254", "op": "Merge", "input": ["StatefulPartitionedCall/ocr_model_v1/bidirectional_1/forward_lstm_1/PartitionedCall/while/enter/_243", "StatefulPartitionedCall/ocr_model_v1/bidirectional_1/forward_lstm_1/PartitionedCall/while/next_iteration/_290"], "attr": {"T": {"type": "DT_FLOAT"}, "N": {"i": "2"}}}, {"name": "StatefulPartitionedCall/ocr_model_v1/bidirectional_1/forward_lstm_1/PartitionedCall/while/merge/_255", "op": "Merge", "input": ["StatefulPartitionedCall/ocr_model_v1/bidirectional_1/forward_lstm_1/PartitionedCall/while/enter/_244", "StatefulPartitionedCall/ocr_model_v1/bidirectional_1/forward_lstm_1/PartitionedCall/while/next_iteration/_291"], "attr": {"T": {"type": "DT_FLOAT"}, "N": {"i": "2"}}}, {"name": "StatefulPartitionedCall/ocr_model_v1/bidirectional_1/forward_lstm_1/PartitionedCall/while/merge/_256", "op": "Merge", "input": ["StatefulPartitionedCall/ocr_model_v1/bidirectional_1/forward_lstm_1/PartitionedCall/while/enter/_245", "StatefulPartitionedCall/ocr_model_v1/bidirectional_1/forward_lstm_1/PartitionedCall/while/next_iteration/_292"], "attr": {"N": {"i": "2"}, "T": {"type": "DT_FLOAT"}}}, {"name": "StatefulPartitionedCall/ocr_model_v1/bidirectional_1/forward_lstm_1/PartitionedCall/while/merge/_248", "op": "Merge", "input": ["StatefulPartitionedCall/ocr_model_v1/bidirectional_1/forward_lstm_1/PartitionedCall/while/enter/_237", "StatefulPartitionedCall/ocr_model_v1/bidirectional_1/forward_lstm_1/PartitionedCall/while/next_iteration/_284"], "attr": {"N": {"i": "2"}, "T": {"type": "DT_INT32"}}}, {"name": "StatefulPartitionedCall/ocr_model_v1/bidirectional_1/forward_lstm_1/PartitionedCall/while/merge/_246", "op": "Merge", "input": ["StatefulPartitionedCall/ocr_model_v1/bidirectional_1/forward_lstm_1/PartitionedCall/while/enter/_235", "StatefulPartitionedCall/ocr_model_v1/bidirectional_1/forward_lstm_1/PartitionedCall/while/next_iteration/_282"], "attr": {"T": {"type": "DT_INT32"}, "N": {"i": "2"}}}, {"name": "StatefulPartitionedCall/ocr_model_v1/bidirectional_1/backward_lstm_1/PartitionedCall/while/merge/_314", "op": "Merge", "input": ["StatefulPartitionedCall/ocr_model_v1/bidirectional_1/backward_lstm_1/PartitionedCall/while/enter/_303", "StatefulPartitionedCall/ocr_model_v1/bidirectional_1/backward_lstm_1/PartitionedCall/while/next_iteration/_350"], "attr": {"T": {"type": "DT_FLOAT"}, "N": {"i": "2"}}}, {"name": "StatefulPartitionedCall/ocr_model_v1/bidirectional_1/backward_lstm_1/PartitionedCall/while/merge/_315", "op": "Merge", "input": ["StatefulPartitionedCall/ocr_model_v1/bidirectional_1/backward_lstm_1/PartitionedCall/while/enter/_304", "StatefulPartitionedCall/ocr_model_v1/bidirectional_1/backward_lstm_1/PartitionedCall/while/next_iteration/_351"], "attr": {"N": {"i": "2"}, "T": {"type": "DT_FLOAT"}}}, {"name": "StatefulPartitionedCall/ocr_model_v1/bidirectional_1/backward_lstm_1/PartitionedCall/while/merge/_316", "op": "Merge", "input": ["StatefulPartitionedCall/ocr_model_v1/bidirectional_1/backward_lstm_1/PartitionedCall/while/enter/_305", "StatefulPartitionedCall/ocr_model_v1/bidirectional_1/backward_lstm_1/PartitionedCall/while/next_iteration/_352"], "attr": {"T": {"type": "DT_FLOAT"}, "N": {"i": "2"}}}, {"name": "StatefulPartitionedCall/ocr_model_v1/bidirectional_1/backward_lstm_1/PartitionedCall/while/merge/_308", "op": "Merge", "input": ["StatefulPartitionedCall/ocr_model_v1/bidirectional_1/backward_lstm_1/PartitionedCall/while/enter/_297", "StatefulPartitionedCall/ocr_model_v1/bidirectional_1/backward_lstm_1/PartitionedCall/while/next_iteration/_344"], "attr": {"N": {"i": "2"}, "T": {"type": "DT_INT32"}}}, {"name": "StatefulPartitionedCall/ocr_model_v1/bidirectional/forward_lstm/PartitionedCall/while/merge/_134", "op": "Merge", "input": ["StatefulPartitionedCall/ocr_model_v1/bidirectional/forward_lstm/PartitionedCall/while/enter/_123", "StatefulPartitionedCall/ocr_model_v1/bidirectional/forward_lstm/PartitionedCall/while/next_iteration/_170"], "attr": {"N": {"i": "2"}, "T": {"type": "DT_FLOAT"}}}, {"name": "StatefulPartitionedCall/ocr_model_v1/bidirectional/forward_lstm/PartitionedCall/while/merge/_135", "op": "Merge", "input": ["StatefulPartitionedCall/ocr_model_v1/bidirectional/forward_lstm/PartitionedCall/while/enter/_124", "StatefulPartitionedCall/ocr_model_v1/bidirectional/forward_lstm/PartitionedCall/while/next_iteration/_171"], "attr": {"N": {"i": "2"}, "T": {"type": "DT_FLOAT"}}}, {"name": "StatefulPartitionedCall/ocr_model_v1/bidirectional/forward_lstm/PartitionedCall/while/merge/_136", "op": "Merge", "input": ["StatefulPartitionedCall/ocr_model_v1/bidirectional/forward_lstm/PartitionedCall/while/enter/_125", "StatefulPartitionedCall/ocr_model_v1/bidirectional/forward_lstm/PartitionedCall/while/next_iteration/_172"], "attr": {"N": {"i": "2"}, "T": {"type": "DT_FLOAT"}}}, {"name": "StatefulPartitionedCall/ocr_model_v1/bidirectional/forward_lstm/PartitionedCall/while/merge/_128", "op": "Merge", "input": ["StatefulPartitionedCall/ocr_model_v1/bidirectional/forward_lstm/PartitionedCall/while/enter/_117", "StatefulPartitionedCall/ocr_model_v1/bidirectional/forward_lstm/PartitionedCall/while/next_iteration/_164"], "attr": {"T": {"type": "DT_INT32"}, "N": {"i": "2"}}}, {"name": "StatefulPartitionedCall/ocr_model_v1/bidirectional/forward_lstm/PartitionedCall/while/merge/_126", "op": "Merge", "input": ["StatefulPartitionedCall/ocr_model_v1/bidirectional/forward_lstm/PartitionedCall/while/enter/_115", "StatefulPartitionedCall/ocr_model_v1/bidirectional/forward_lstm/PartitionedCall/while/next_iteration/_162"], "attr": {"T": {"type": "DT_INT32"}, "N": {"i": "2"}}}, {"name": "StatefulPartitionedCall/ocr_model_v1/bidirectional/backward_lstm/PartitionedCall/while/merge/_194", "op": "Merge", "input": ["StatefulPartitionedCall/ocr_model_v1/bidirectional/backward_lstm/PartitionedCall/while/enter/_183", "StatefulPartitionedCall/ocr_model_v1/bidirectional/backward_lstm/PartitionedCall/while/next_iteration/_230"], "attr": {"T": {"type": "DT_FLOAT"}, "N": {"i": "2"}}}, {"name": "StatefulPartitionedCall/ocr_model_v1/bidirectional/backward_lstm/PartitionedCall/while/merge/_195", "op": "Merge", "input": ["StatefulPartitionedCall/ocr_model_v1/bidirectional/backward_lstm/PartitionedCall/while/enter/_184", "StatefulPartitionedCall/ocr_model_v1/bidirectional/backward_lstm/PartitionedCall/while/next_iteration/_231"], "attr": {"N": {"i": "2"}, "T": {"type": "DT_FLOAT"}}}, {"name": "StatefulPartitionedCall/ocr_model_v1/bidirectional/backward_lstm/PartitionedCall/while/merge/_196", "op": "Merge", "input": ["StatefulPartitionedCall/ocr_model_v1/bidirectional/backward_lstm/PartitionedCall/while/enter/_185", "StatefulPartitionedCall/ocr_model_v1/bidirectional/backward_lstm/PartitionedCall/while/next_iteration/_232"], "attr": {"N": {"i": "2"}, "T": {"type": "DT_FLOAT"}}}, {"name": "StatefulPartitionedCall/ocr_model_v1/bidirectional/backward_lstm/PartitionedCall/while/merge/_188", "op": "Merge", "input": ["StatefulPartitionedCall/ocr_model_v1/bidirectional/backward_lstm/PartitionedCall/while/enter/_177", "StatefulPartitionedCall/ocr_model_v1/bidirectional/backward_lstm/PartitionedCall/while/next_iteration/_224"], "attr": {"N": {"i": "2"}, "T": {"type": "DT_INT32"}}}, {"name": "StatefulPartitionedCall/ocr_model_v1/bidirectional/backward_lstm/PartitionedCall/while/merge/_186", "op": "Merge", "input": ["StatefulPartitionedCall/ocr_model_v1/bidirectional/backward_lstm/PartitionedCall/while/enter/_175", "StatefulPartitionedCall/ocr_model_v1/bidirectional/backward_lstm/PartitionedCall/while/next_iteration/_222"], "attr": {"T": {"type": "DT_INT32"}, "N": {"i": "2"}}}, {"name": "StatefulPartitionedCall/ocr_model_v1/bidirectional_1/backward_lstm_1/PartitionedCall/while/merge/_306", "op": "Merge", "input": ["StatefulPartitionedCall/ocr_model_v1/bidirectional_1/backward_lstm_1/PartitionedCall/while/enter/_295", "StatefulPartitionedCall/ocr_model_v1/bidirectional_1/backward_lstm_1/PartitionedCall/while/next_iteration/_342"], "attr": {"N": {"i": "2"}, "T": {"type": "DT_INT32"}}}, {"name": "StatefulPartitionedCall/ocr_model_v1/pool1/MaxPool", "op": "MaxPool", "input": ["StatefulPartitionedCall/ocr_model_v1/Conv1/Relu"], "attr": {"strides": {"list": {"i": ["1", "2", "2", "1"]}}, "data_format": {"s": "TkhXQw=="}, "ksize": {"list": {"i": ["1", "2", "2", "1"]}}, "T": {"type": "DT_FLOAT"}, "explicit_paddings": {"list": {}}, "padding": {"s": "VkFMSUQ="}}}, {"name": "StatefulPartitionedCall/ocr_model_v1/Conv2/Relu", "op": "_FusedConv2D", "input": ["StatefulPartitionedCall/ocr_model_v1/pool1/MaxPool", "StatefulPartitionedCall/ocr_model_v1/Conv2/Conv2D/ReadVariableOp", "StatefulPartitionedCall/ocr_model_v1/Conv2/BiasAdd/ReadVariableOp"], "device": "/device:CPU:0", "attr": {"fused_ops": {"list": {"s": ["Qmlhc0FkZA==", "UmVsdQ=="]}}, "use_cudnn_on_gpu": {"b": true}, "num_args": {"i": "1"}, "padding": {"s": "U0FNRQ=="}, "explicit_paddings": {"list": {}}, "dilations": {"list": {"i": ["1", "1", "1", "1"]}}, "strides": {"list": {"i": ["1", "1", "1", "1"]}}, "T": {"type": "DT_FLOAT"}, "epsilon": {"f": 0.0}, "data_format": {"s": "TkhXQw=="}}}, {"name": "StatefulPartitionedCall/ocr_model_v1/pool2/MaxPool", "op": "MaxPool", "input": ["StatefulPartitionedCall/ocr_model_v1/Conv2/Relu"], "attr": {"padding": {"s": "VkFMSUQ="}, "explicit_paddings": {"list": {}}, "ksize": {"list": {"i": ["1", "2", "2", "1"]}}, "T": {"type": "DT_FLOAT"}, "data_format": {"s": "TkhXQw=="}, "strides": {"list": {"i": ["1", "2", "2", "1"]}}}}, {"name": "StatefulPartitionedCall/ocr_model_v1/reshape/Shape", "op": "Shape", "input": ["StatefulPartitionedCall/ocr_model_v1/pool2/MaxPool"], "attr": {"out_type": {"type": "DT_INT32"}, "T": {"type": "DT_FLOAT"}}}, {"name": "StatefulPartitionedCall/ocr_model_v1/reshape/strided_slice", "op": "StridedSlice", "input": ["StatefulPartitionedCall/ocr_model_v1/reshape/Shape", "StatefulPartitionedCall/ocr_model_v1/reshape/strided_slice/stack", "StatefulPartitionedCall/ocr_model_v1/reshape/strided_slice/stack_1", "StatefulPartitionedCall/ocr_model_v1/reshape/strided_slice/stack_2"], "attr": {"T": {"type": "DT_INT32"}, "Index": {"type": "DT_INT32"}, "shrink_axis_mask": {"i": "1"}, "end_mask": {"i": "0"}, "begin_mask": {"i": "0"}, "new_axis_mask": {"i": "0"}, "ellipsis_mask": {"i": "0"}}}, {"name": "StatefulPartitionedCall/ocr_model_v1/reshape/Reshape/shape", "op": "Pack", "input": ["StatefulPartitionedCall/ocr_model_v1/reshape/strided_slice", "StatefulPartitionedCall/ocr_model_v1/reshape/Reshape/shape/1", "StatefulPartitionedCall/ocr_model_v1/reshape/Reshape/shape/2"], "attr": {"N": {"i": "3"}, "T": {"type": "DT_INT32"}, "axis": {"i": "0"}}}, {"name": "StatefulPartitionedCall/ocr_model_v1/reshape/Reshape", "op": "Reshape", "input": ["StatefulPartitionedCall/ocr_model_v1/pool2/MaxPool", "StatefulPartitionedCall/ocr_model_v1/reshape/Reshape/shape"], "attr": {"Tshape": {"type": "DT_INT32"}, "T": {"type": "DT_FLOAT"}}}, {"name": "StatefulPartitionedCall/ocr_model_v1/dense1/Tensordot/Shape", "op": "Shape", "input": ["StatefulPartitionedCall/ocr_model_v1/reshape/Reshape"], "attr": {"out_type": {"type": "DT_INT32"}, "T": {"type": "DT_FLOAT"}}}, {"name": "StatefulPartitionedCall/ocr_model_v1/dense1/Tensordot/GatherV2_1", "op": "GatherV2", "input": ["StatefulPartitionedCall/ocr_model_v1/dense1/Tensordot/Shape", "StatefulPartitionedCall/ocr_model_v1/dense1/Tensordot/axes", "StatefulPartitionedCall/ocr_model_v1/dense1/Tensordot/GatherV2_1/axis"], "attr": {"Taxis": {"type": "DT_INT32"}, "batch_dims": {"i": "0"}, "Tparams": {"type": "DT_INT32"}, "Tindices": {"type": "DT_INT32"}}}, {"name": "StatefulPartitionedCall/ocr_model_v1/dense1/Tensordot/GatherV2", "op": "GatherV2", "input": ["StatefulPartitionedCall/ocr_model_v1/dense1/Tensordot/Shape", "StatefulPartitionedCall/ocr_model_v1/dense1/Tensordot/free", "StatefulPartitionedCall/ocr_model_v1/dense1/Tensordot/GatherV2/axis"], "attr": {"Tparams": {"type": "DT_INT32"}, "Tindices": {"type": "DT_INT32"}, "Taxis": {"type": "DT_INT32"}, "batch_dims": {"i": "0"}}}, {"name": "StatefulPartitionedCall/ocr_model_v1/dense1/Tensordot/Prod_1", "op": "Prod", "input": ["StatefulPartitionedCall/ocr_model_v1/dense1/Tensordot/GatherV2_1", "StatefulPartitionedCall/ocr_model_v1/dense1/Tensordot/Const_1"], "attr": {"keep_dims": {"b": false}, "T": {"type": "DT_INT32"}, "Tidx": {"type": "DT_INT32"}}}, {"name": "StatefulPartitionedCall/ocr_model_v1/dense1/Tensordot/Prod", "op": "Prod", "input": ["StatefulPartitionedCall/ocr_model_v1/dense1/Tensordot/GatherV2", "StatefulPartitionedCall/ocr_model_v1/dense1/Tensordot/Const"], "attr": {"keep_dims": {"b": false}, "T": {"type": "DT_INT32"}, "Tidx": {"type": "DT_INT32"}}}, {"name": "StatefulPartitionedCall/ocr_model_v1/dense1/Tensordot/concat_1", "op": "ConcatV2", "input": ["StatefulPartitionedCall/ocr_model_v1/dense1/Tensordot/GatherV2", "StatefulPartitionedCall/ocr_model_v1/dense1/Tensordot/Const_2", "StatefulPartitionedCall/ocr_model_v1/dense1/Tensordot/concat_1/axis"], "attr": {"T": {"type": "DT_INT32"}, "Tidx": {"type": "DT_INT32"}, "N": {"i": "2"}}}, {"name": "StatefulPartitionedCall/ocr_model_v1/dense1/Tensordot/stack", "op": "Pack", "input": ["StatefulPartitionedCall/ocr_model_v1/dense1/Tensordot/Prod", "StatefulPartitionedCall/ocr_model_v1/dense1/Tensordot/Prod_1"], "attr": {"T": {"type": "DT_INT32"}, "N": {"i": "2"}, "axis": {"i": "0"}}}, {"name": "StatefulPartitionedCall/ocr_model_v1/dense1/Tensordot/Reshape", "op": "Reshape", "input": ["StatefulPartitionedCall/ocr_model_v1/reshape/Reshape", "StatefulPartitionedCall/ocr_model_v1/dense1/Tensordot/stack"], "attr": {"Tshape": {"type": "DT_INT32"}, "T": {"type": "DT_FLOAT"}}}, {"name": "StatefulPartitionedCall/ocr_model_v1/dense1/Tensordot/MatMul", "op": "MatMul", "input": ["StatefulPartitionedCall/ocr_model_v1/dense1/Tensordot/Reshape", "StatefulPartitionedCall/ocr_model_v1/dense1/Tensordot/ReadVariableOp"], "device": "/device:CPU:0", "attr": {"transpose_b": {"b": false}, "transpose_a": {"b": false}, "T": {"type": "DT_FLOAT"}}}, {"name": "StatefulPartitionedCall/ocr_model_v1/dense1/Tensordot", "op": "Reshape", "input": ["StatefulPartitionedCall/ocr_model_v1/dense1/Tensordot/MatMul", "StatefulPartitionedCall/ocr_model_v1/dense1/Tensordot/concat_1"], "attr": {"Tshape": {"type": "DT_INT32"}, "T": {"type": "DT_FLOAT"}}}, {"name": "StatefulPartitionedCall/ocr_model_v1/dense1/BiasAdd", "op": "BiasAdd", "input": ["StatefulPartitionedCall/ocr_model_v1/dense1/Tensordot", "StatefulPartitionedCall/ocr_model_v1/dense1/BiasAdd/ReadVariableOp"], "attr": {"data_format": {"s": "TkhXQw=="}, "T": {"type": "DT_FLOAT"}}}, {"name": "StatefulPartitionedCall/ocr_model_v1/dense1/Relu", "op": "Relu", "input": ["StatefulPartitionedCall/ocr_model_v1/dense1/BiasAdd"], "attr": {"T": {"type": "DT_FLOAT"}}}, {"name": "StatefulPartitionedCall/ocr_model_v1/bidirectional/forward_lstm/Shape", "op": "Shape", "input": ["StatefulPartitionedCall/ocr_model_v1/dense1/Relu"], "attr": {"out_type": {"type": "DT_INT32"}, "T": {"type": "DT_FLOAT"}}}, {"name": "StatefulPartitionedCall/ocr_model_v1/bidirectional/forward_lstm/PartitionedCall/transpose", "op": "Transpose", "input": ["StatefulPartitionedCall/ocr_model_v1/dense1/Relu", "StatefulPartitionedCall/ocr_model_v1/bidirectional/forward_lstm/PartitionedCall/transpose/perm"], "attr": {"Tperm": {"type": "DT_INT32"}, "T": {"type": "DT_FLOAT"}}}, {"name": "StatefulPartitionedCall/ocr_model_v1/bidirectional/backward_lstm/Shape", "op": "Shape", "input": ["StatefulPartitionedCall/ocr_model_v1/dense1/Relu"], "attr": {"T": {"type": "DT_FLOAT"}, "out_type": {"type": "DT_INT32"}}}, {"name": "StatefulPartitionedCall/ocr_model_v1/bidirectional/backward_lstm/PartitionedCall/transpose", "op": "Transpose", "input": ["StatefulPartitionedCall/ocr_model_v1/dense1/Relu", "StatefulPartitionedCall/ocr_model_v1/bidirectional/backward_lstm/PartitionedCall/transpose/perm"], "attr": {"T": {"type": "DT_FLOAT"}, "Tperm": {"type": "DT_INT32"}}}, {"name": "StatefulPartitionedCall/ocr_model_v1/bidirectional/forward_lstm/strided_slice", "op": "StridedSlice", "input": ["StatefulPartitionedCall/ocr_model_v1/bidirectional/forward_lstm/Shape", "StatefulPartitionedCall/ocr_model_v1/bidirectional/forward_lstm/strided_slice/stack", "StatefulPartitionedCall/ocr_model_v1/bidirectional/forward_lstm/strided_slice/stack_1", "StatefulPartitionedCall/ocr_model_v1/bidirectional/forward_lstm/strided_slice/stack_2"], "attr": {"Index": {"type": "DT_INT32"}, "begin_mask": {"i": "0"}, "new_axis_mask": {"i": "0"}, "T": {"type": "DT_INT32"}, "end_mask": {"i": "0"}, "shrink_axis_mask": {"i": "1"}, "ellipsis_mask": {"i": "0"}}}, {"name": "StatefulPartitionedCall/ocr_model_v1/bidirectional/forward_lstm/PartitionedCall/TensorArrayUnstack/TensorListFromTensor", "op": "TensorListFromTensor", "input": ["StatefulPartitionedCall/ocr_model_v1/bidirectional/forward_lstm/PartitionedCall/transpose", "StatefulPartitionedCall/ocr_model_v1/bidirectional/forward_lstm/PartitionedCall/TensorArrayUnstack/TensorListFromTensor/element_shape"], "attr": {"element_dtype": {"type": "DT_FLOAT"}, "shape_type": {"type": "DT_INT32"}}, "experimentalType": {"typeId": "TFT_PRODUCT", "args": [{"typeId": "TFT_ARRAY", "args": [{"typeId": "TFT_TENSOR", "args": [{"typeId": "TFT_FLOAT"}]}]}]}}, {"name": "StatefulPartitionedCall/ocr_model_v1/bidirectional/forward_lstm/PartitionedCall/Shape", "op": "Shape", "input": ["StatefulPartitionedCall/ocr_model_v1/bidirectional/forward_lstm/PartitionedCall/transpose"], "attr": {"out_type": {"type": "DT_INT32"}, "T": {"type": "DT_FLOAT"}}}, {"name": "StatefulPartitionedCall/ocr_model_v1/bidirectional/backward_lstm/strided_slice", "op": "StridedSlice", "input": ["StatefulPartitionedCall/ocr_model_v1/bidirectional/backward_lstm/Shape", "StatefulPartitionedCall/ocr_model_v1/bidirectional/backward_lstm/strided_slice/stack", "StatefulPartitionedCall/ocr_model_v1/bidirectional/backward_lstm/strided_slice/stack_1", "StatefulPartitionedCall/ocr_model_v1/bidirectional/backward_lstm/strided_slice/stack_2"], "attr": {"shrink_axis_mask": {"i": "1"}, "end_mask": {"i": "0"}, "begin_mask": {"i": "0"}, "ellipsis_mask": {"i": "0"}, "new_axis_mask": {"i": "0"}, "T": {"type": "DT_INT32"}, "Index": {"type": "DT_INT32"}}}, {"name": "StatefulPartitionedCall/ocr_model_v1/bidirectional/backward_lstm/PartitionedCall/ReverseV2", "op": "ReverseV2", "input": ["StatefulPartitionedCall/ocr_model_v1/bidirectional/backward_lstm/PartitionedCall/transpose", "StatefulPartitionedCall/ocr_model_v1/bidirectional/backward_lstm/PartitionedCall/ReverseV2/axis"], "attr": {"T": {"type": "DT_FLOAT"}, "Tidx": {"type": "DT_INT32"}}}, {"name": "StatefulPartitionedCall/ocr_model_v1/bidirectional/backward_lstm/PartitionedCall/Shape", "op": "Shape", "input": ["StatefulPartitionedCall/ocr_model_v1/bidirectional/backward_lstm/PartitionedCall/transpose"], "attr": {"out_type": {"type": "DT_INT32"}, "T": {"type": "DT_FLOAT"}}}, {"name": "StatefulPartitionedCall/ocr_model_v1/bidirectional/forward_lstm/zeros_1/packed", "op": "Pack", "input": ["StatefulPartitionedCall/ocr_model_v1/bidirectional/forward_lstm/strided_slice", "StatefulPartitionedCall/ocr_model_v1/bidirectional/forward_lstm/zeros_1/packed/1"], "attr": {"N": {"i": "2"}, "T": {"type": "DT_INT32"}, "axis": {"i": "0"}}}, {"name": "StatefulPartitionedCall/ocr_model_v1/bidirectional/forward_lstm/zeros/packed", "op": "Pack", "input": ["StatefulPartitionedCall/ocr_model_v1/bidirectional/forward_lstm/strided_slice", "StatefulPartitionedCall/ocr_model_v1/bidirectional/forward_lstm/zeros/packed/1"], "attr": {"N": {"i": "2"}, "T": {"type": "DT_INT32"}, "axis": {"i": "0"}}}, {"name": "StatefulPartitionedCall/ocr_model_v1/bidirectional/forward_lstm/PartitionedCall/while/enter/_122", "op": "Enter", "input": ["StatefulPartitionedCall/ocr_model_v1/bidirectional/forward_lstm/PartitionedCall/TensorArrayUnstack/TensorListFromTensor"], "attr": {"is_constant": {"b": false}, "frame_name": {"s": "U3RhdGVmdWxQYXJ0aXRpb25lZENhbGwvb2NyX21vZGVsX3YxL2JpZGlyZWN0aW9uYWwvZm9yd2FyZF9sc3RtL1BhcnRpdGlvbmVkQ2FsbC93aGlsZQ=="}, "T": {"type": "DT_VARIANT"}, "parallel_iterations": {"i": "32"}}}, {"name": "StatefulPartitionedCall/ocr_model_v1/bidirectional/forward_lstm/PartitionedCall/strided_slice", "op": "StridedSlice", "input": ["StatefulPartitionedCall/ocr_model_v1/bidirectional/forward_lstm/PartitionedCall/Shape", "StatefulPartitionedCall/ocr_model_v1/bidirectional/forward_lstm/PartitionedCall/strided_slice/stack", "StatefulPartitionedCall/ocr_model_v1/bidirectional/forward_lstm/PartitionedCall/strided_slice/stack_1", "StatefulPartitionedCall/ocr_model_v1/bidirectional/forward_lstm/PartitionedCall/strided_slice/stack_2"], "attr": {"new_axis_mask": {"i": "0"}, "end_mask": {"i": "0"}, "ellipsis_mask": {"i": "0"}, "T": {"type": "DT_INT32"}, "Index": {"type": "DT_INT32"}, "shrink_axis_mask": {"i": "1"}, "begin_mask": {"i": "0"}}}, {"name": "StatefulPartitionedCall/ocr_model_v1/bidirectional/backward_lstm/zeros_1/packed", "op": "Pack", "input": ["StatefulPartitionedCall/ocr_model_v1/bidirectional/backward_lstm/strided_slice", "StatefulPartitionedCall/ocr_model_v1/bidirectional/backward_lstm/zeros_1/packed/1"], "attr": {"N": {"i": "2"}, "axis": {"i": "0"}, "T": {"type": "DT_INT32"}}}, {"name": "StatefulPartitionedCall/ocr_model_v1/bidirectional/backward_lstm/zeros/packed", "op": "Pack", "input": ["StatefulPartitionedCall/ocr_model_v1/bidirectional/backward_lstm/strided_slice", "StatefulPartitionedCall/ocr_model_v1/bidirectional/backward_lstm/zeros/packed/1"], "attr": {"N": {"i": "2"}, "axis": {"i": "0"}, "T": {"type": "DT_INT32"}}}, {"name": "StatefulPartitionedCall/ocr_model_v1/bidirectional/backward_lstm/PartitionedCall/TensorArrayUnstack/TensorListFromTensor", "op": "TensorListFromTensor", "input": ["StatefulPartitionedCall/ocr_model_v1/bidirectional/backward_lstm/PartitionedCall/ReverseV2", "StatefulPartitionedCall/ocr_model_v1/bidirectional/backward_lstm/PartitionedCall/TensorArrayUnstack/TensorListFromTensor/element_shape"], "attr": {"element_dtype": {"type": "DT_FLOAT"}, "shape_type": {"type": "DT_INT32"}}, "experimentalType": {"typeId": "TFT_PRODUCT", "args": [{"typeId": "TFT_ARRAY", "args": [{"typeId": "TFT_TENSOR", "args": [{"typeId": "TFT_FLOAT"}]}]}]}}, {"name": "StatefulPartitionedCall/ocr_model_v1/bidirectional/backward_lstm/PartitionedCall/strided_slice", "op": "StridedSlice", "input": ["StatefulPartitionedCall/ocr_model_v1/bidirectional/backward_lstm/PartitionedCall/Shape", "StatefulPartitionedCall/ocr_model_v1/bidirectional/backward_lstm/PartitionedCall/strided_slice/stack", "StatefulPartitionedCall/ocr_model_v1/bidirectional/backward_lstm/PartitionedCall/strided_slice/stack_1", "StatefulPartitionedCall/ocr_model_v1/bidirectional/backward_lstm/PartitionedCall/strided_slice/stack_2"], "attr": {"Index": {"type": "DT_INT32"}, "begin_mask": {"i": "0"}, "T": {"type": "DT_INT32"}, "new_axis_mask": {"i": "0"}, "end_mask": {"i": "0"}, "shrink_axis_mask": {"i": "1"}, "ellipsis_mask": {"i": "0"}}}, {"name": "StatefulPartitionedCall/ocr_model_v1/bidirectional/forward_lstm/zeros_1", "op": "Fill", "input": ["StatefulPartitionedCall/ocr_model_v1/bidirectional/forward_lstm/zeros_1/packed", "StatefulPartitionedCall/ocr_model_v1/bidirectional/forward_lstm/zeros_1/Const"], "attr": {"index_type": {"type": "DT_INT32"}, "T": {"type": "DT_FLOAT"}}}, {"name": "StatefulPartitionedCall/ocr_model_v1/bidirectional/forward_lstm/zeros", "op": "Fill", "input": ["StatefulPartitionedCall/ocr_model_v1/bidirectional/forward_lstm/zeros/packed", "StatefulPartitionedCall/ocr_model_v1/bidirectional/forward_lstm/zeros/Const"], "attr": {"index_type": {"type": "DT_INT32"}, "T": {"type": "DT_FLOAT"}}}, {"name": "StatefulPartitionedCall/ocr_model_v1/bidirectional/forward_lstm/PartitionedCall/while/merge/_133", "op": "Merge", "input": ["StatefulPartitionedCall/ocr_model_v1/bidirectional/forward_lstm/PartitionedCall/while/enter/_122", "StatefulPartitionedCall/ocr_model_v1/bidirectional/forward_lstm/PartitionedCall/while/next_iteration/_169"], "attr": {"T": {"type": "DT_VARIANT"}, "N": {"i": "2"}}}, {"name": "StatefulPartitionedCall/ocr_model_v1/bidirectional/forward_lstm/PartitionedCall/TensorArrayV2_1", "op": "TensorListReserve", "input": ["StatefulPartitionedCall/ocr_model_v1/bidirectional/forward_lstm/PartitionedCall/TensorArrayV2_1/element_shape", "StatefulPartitionedCall/ocr_model_v1/bidirectional/forward_lstm/PartitionedCall/strided_slice"], "attr": {"element_dtype": {"type": "DT_FLOAT"}, "shape_type": {"type": "DT_INT32"}}, "experimentalType": {"typeId": "TFT_PRODUCT", "args": [{"typeId": "TFT_ARRAY", "args": [{"typeId": "TFT_TENSOR", "args": [{"typeId": "TFT_FLOAT"}]}]}]}}, {"name": "StatefulPartitionedCall/ocr_model_v1/bidirectional/forward_lstm/PartitionedCall/while/enter/_121", "op": "Enter", "input": ["StatefulPartitionedCall/ocr_model_v1/bidirectional/forward_lstm/PartitionedCall/strided_slice"], "attr": {"is_constant": {"b": false}, "T": {"type": "DT_INT32"}, "frame_name": {"s": "U3RhdGVmdWxQYXJ0aXRpb25lZENhbGwvb2NyX21vZGVsX3YxL2JpZGlyZWN0aW9uYWwvZm9yd2FyZF9sc3RtL1BhcnRpdGlvbmVkQ2FsbC93aGlsZQ=="}, "parallel_iterations": {"i": "32"}}}, {"name": "StatefulPartitionedCall/ocr_model_v1/bidirectional/backward_lstm/zeros_1", "op": "Fill", "input": ["StatefulPartitionedCall/ocr_model_v1/bidirectional/backward_lstm/zeros_1/packed", "StatefulPartitionedCall/ocr_model_v1/bidirectional/backward_lstm/zeros_1/Const"], "attr": {"index_type": {"type": "DT_INT32"}, "T": {"type": "DT_FLOAT"}}}, {"name": "StatefulPartitionedCall/ocr_model_v1/bidirectional/backward_lstm/zeros", "op": "Fill", "input": ["StatefulPartitionedCall/ocr_model_v1/bidirectional/backward_lstm/zeros/packed", "StatefulPartitionedCall/ocr_model_v1/bidirectional/backward_lstm/zeros/Const"], "attr": {"index_type": {"type": "DT_INT32"}, "T": {"type": "DT_FLOAT"}}}, {"name": "StatefulPartitionedCall/ocr_model_v1/bidirectional/backward_lstm/PartitionedCall/while/enter/_182", "op": "Enter", "input": ["StatefulPartitionedCall/ocr_model_v1/bidirectional/backward_lstm/PartitionedCall/TensorArrayUnstack/TensorListFromTensor"], "attr": {"parallel_iterations": {"i": "32"}, "is_constant": {"b": false}, "T": {"type": "DT_VARIANT"}, "frame_name": {"s": "U3RhdGVmdWxQYXJ0aXRpb25lZENhbGwvb2NyX21vZGVsX3YxL2JpZGlyZWN0aW9uYWwvYmFja3dhcmRfbHN0bS9QYXJ0aXRpb25lZENhbGwvd2hpbGU="}}}, {"name": "StatefulPartitionedCall/ocr_model_v1/bidirectional/backward_lstm/PartitionedCall/TensorArrayV2_1", "op": "TensorListReserve", "input": ["StatefulPartitionedCall/ocr_model_v1/bidirectional/backward_lstm/PartitionedCall/TensorArrayV2_1/element_shape", "StatefulPartitionedCall/ocr_model_v1/bidirectional/backward_lstm/PartitionedCall/strided_slice"], "attr": {"element_dtype": {"type": "DT_FLOAT"}, "shape_type": {"type": "DT_INT32"}}, "experimentalType": {"typeId": "TFT_PRODUCT", "args": [{"typeId": "TFT_ARRAY", "args": [{"typeId": "TFT_TENSOR", "args": [{"typeId": "TFT_FLOAT"}]}]}]}}, {"name": "StatefulPartitionedCall/ocr_model_v1/bidirectional/backward_lstm/PartitionedCall/while/enter/_181", "op": "Enter", "input": ["StatefulPartitionedCall/ocr_model_v1/bidirectional/backward_lstm/PartitionedCall/strided_slice"], "attr": {"frame_name": {"s": "U3RhdGVmdWxQYXJ0aXRpb25lZENhbGwvb2NyX21vZGVsX3YxL2JpZGlyZWN0aW9uYWwvYmFja3dhcmRfbHN0bS9QYXJ0aXRpb25lZENhbGwvd2hpbGU="}, "is_constant": {"b": false}, "T": {"type": "DT_INT32"}, "parallel_iterations": {"i": "32"}}}, {"name": "StatefulPartitionedCall/ocr_model_v1/bidirectional/forward_lstm/PartitionedCall/while/enter/_120", "op": "Enter", "input": ["StatefulPartitionedCall/ocr_model_v1/bidirectional/forward_lstm/zeros_1"], "attr": {"is_constant": {"b": false}, "parallel_iterations": {"i": "32"}, "frame_name": {"s": "U3RhdGVmdWxQYXJ0aXRpb25lZENhbGwvb2NyX21vZGVsX3YxL2JpZGlyZWN0aW9uYWwvZm9yd2FyZF9sc3RtL1BhcnRpdGlvbmVkQ2FsbC93aGlsZQ=="}, "T": {"type": "DT_FLOAT"}}}, {"name": "StatefulPartitionedCall/ocr_model_v1/bidirectional/forward_lstm/PartitionedCall/while/enter/_119", "op": "Enter", "input": ["StatefulPartitionedCall/ocr_model_v1/bidirectional/forward_lstm/zeros"], "attr": {"frame_name": {"s": "U3RhdGVmdWxQYXJ0aXRpb25lZENhbGwvb2NyX21vZGVsX3YxL2JpZGlyZWN0aW9uYWwvZm9yd2FyZF9sc3RtL1BhcnRpdGlvbmVkQ2FsbC93aGlsZQ=="}, "parallel_iterations": {"i": "32"}, "is_constant": {"b": false}, "T": {"type": "DT_FLOAT"}}}, {"name": "StatefulPartitionedCall/ocr_model_v1/bidirectional/forward_lstm/PartitionedCall/while/enter/_118", "op": "Enter", "input": ["StatefulPartitionedCall/ocr_model_v1/bidirectional/forward_lstm/PartitionedCall/TensorArrayV2_1"], "attr": {"frame_name": {"s": "U3RhdGVmdWxQYXJ0aXRpb25lZENhbGwvb2NyX21vZGVsX3YxL2JpZGlyZWN0aW9uYWwvZm9yd2FyZF9sc3RtL1BhcnRpdGlvbmVkQ2FsbC93aGlsZQ=="}, "T": {"type": "DT_VARIANT"}, "is_constant": {"b": false}, "parallel_iterations": {"i": "32"}}}, {"name": "StatefulPartitionedCall/ocr_model_v1/bidirectional/forward_lstm/PartitionedCall/while/merge/_132", "op": "Merge", "input": ["StatefulPartitionedCall/ocr_model_v1/bidirectional/forward_lstm/PartitionedCall/while/enter/_121", "StatefulPartitionedCall/ocr_model_v1/bidirectional/forward_lstm/PartitionedCall/while/next_iteration/_168"], "attr": {"N": {"i": "2"}, "T": {"type": "DT_INT32"}}}, {"name": "StatefulPartitionedCall/ocr_model_v1/bidirectional/backward_lstm/PartitionedCall/while/enter/_180", "op": "Enter", "input": ["StatefulPartitionedCall/ocr_model_v1/bidirectional/backward_lstm/zeros_1"], "attr": {"parallel_iterations": {"i": "32"}, "T": {"type": "DT_FLOAT"}, "frame_name": {"s": "U3RhdGVmdWxQYXJ0aXRpb25lZENhbGwvb2NyX21vZGVsX3YxL2JpZGlyZWN0aW9uYWwvYmFja3dhcmRfbHN0bS9QYXJ0aXRpb25lZENhbGwvd2hpbGU="}, "is_constant": {"b": false}}}, {"name": "StatefulPartitionedCall/ocr_model_v1/bidirectional/backward_lstm/PartitionedCall/while/enter/_179", "op": "Enter", "input": ["StatefulPartitionedCall/ocr_model_v1/bidirectional/backward_lstm/zeros"], "attr": {"T": {"type": "DT_FLOAT"}, "frame_name": {"s": "U3RhdGVmdWxQYXJ0aXRpb25lZENhbGwvb2NyX21vZGVsX3YxL2JpZGlyZWN0aW9uYWwvYmFja3dhcmRfbHN0bS9QYXJ0aXRpb25lZENhbGwvd2hpbGU="}, "parallel_iterations": {"i": "32"}, "is_constant": {"b": false}}}, {"name": "StatefulPartitionedCall/ocr_model_v1/bidirectional/backward_lstm/PartitionedCall/while/merge/_193", "op": "Merge", "input": ["StatefulPartitionedCall/ocr_model_v1/bidirectional/backward_lstm/PartitionedCall/while/enter/_182", "StatefulPartitionedCall/ocr_model_v1/bidirectional/backward_lstm/PartitionedCall/while/next_iteration/_229"], "attr": {"T": {"type": "DT_VARIANT"}, "N": {"i": "2"}}}, {"name": "StatefulPartitionedCall/ocr_model_v1/bidirectional/backward_lstm/PartitionedCall/while/enter/_178", "op": "Enter", "input": ["StatefulPartitionedCall/ocr_model_v1/bidirectional/backward_lstm/PartitionedCall/TensorArrayV2_1"], "attr": {"frame_name": {"s": "U3RhdGVmdWxQYXJ0aXRpb25lZENhbGwvb2NyX21vZGVsX3YxL2JpZGlyZWN0aW9uYWwvYmFja3dhcmRfbHN0bS9QYXJ0aXRpb25lZENhbGwvd2hpbGU="}, "parallel_iterations": {"i": "32"}, "T": {"type": "DT_VARIANT"}, "is_constant": {"b": false}}}, {"name": "StatefulPartitionedCall/ocr_model_v1/bidirectional/backward_lstm/PartitionedCall/while/merge/_192", "op": "Merge", "input": ["StatefulPartitionedCall/ocr_model_v1/bidirectional/backward_lstm/PartitionedCall/while/enter/_181", "StatefulPartitionedCall/ocr_model_v1/bidirectional/backward_lstm/PartitionedCall/while/next_iteration/_228"], "attr": {"N": {"i": "2"}, "T": {"type": "DT_INT32"}}}, {"name": "StatefulPartitionedCall/ocr_model_v1/bidirectional/forward_lstm/PartitionedCall/while/merge/_131", "op": "Merge", "input": ["StatefulPartitionedCall/ocr_model_v1/bidirectional/forward_lstm/PartitionedCall/while/enter/_120", "StatefulPartitionedCall/ocr_model_v1/bidirectional/forward_lstm/PartitionedCall/while/next_iteration/_167"], "attr": {"T": {"type": "DT_FLOAT"}, "N": {"i": "2"}}}, {"name": "StatefulPartitionedCall/ocr_model_v1/bidirectional/forward_lstm/PartitionedCall/while/merge/_130", "op": "Merge", "input": ["StatefulPartitionedCall/ocr_model_v1/bidirectional/forward_lstm/PartitionedCall/while/enter/_119", "StatefulPartitionedCall/ocr_model_v1/bidirectional/forward_lstm/PartitionedCall/while/next_iteration/_166"], "attr": {"N": {"i": "2"}, "T": {"type": "DT_FLOAT"}}}, {"name": "StatefulPartitionedCall/ocr_model_v1/bidirectional/forward_lstm/PartitionedCall/while/merge/_129", "op": "Merge", "input": ["StatefulPartitionedCall/ocr_model_v1/bidirectional/forward_lstm/PartitionedCall/while/enter/_118", "StatefulPartitionedCall/ocr_model_v1/bidirectional/forward_lstm/PartitionedCall/while/next_iteration/_165"], "attr": {"N": {"i": "2"}, "T": {"type": "DT_VARIANT"}}}, {"name": "StatefulPartitionedCall/ocr_model_v1/bidirectional/forward_lstm/PartitionedCall/while/cond/_113/while/Less", "op": "Less", "input": ["StatefulPartitionedCall/ocr_model_v1/bidirectional/forward_lstm/PartitionedCall/while/merge/_128", "StatefulPartitionedCall/ocr_model_v1/bidirectional/forward_lstm/PartitionedCall/while/merge/_132", "^StatefulPartitionedCall/ocr_model_v1/bidirectional/forward_lstm/PartitionedCall/while/merge/_126"], "attr": {"T": {"type": "DT_INT32"}}}, {"name": "StatefulPartitionedCall/ocr_model_v1/bidirectional/backward_lstm/PartitionedCall/while/merge/_191", "op": "Merge", "input": ["StatefulPartitionedCall/ocr_model_v1/bidirectional/backward_lstm/PartitionedCall/while/enter/_180", "StatefulPartitionedCall/ocr_model_v1/bidirectional/backward_lstm/PartitionedCall/while/next_iteration/_227"], "attr": {"T": {"type": "DT_FLOAT"}, "N": {"i": "2"}}}, {"name": "StatefulPartitionedCall/ocr_model_v1/bidirectional/backward_lstm/PartitionedCall/while/merge/_190", "op": "Merge", "input": ["StatefulPartitionedCall/ocr_model_v1/bidirectional/backward_lstm/PartitionedCall/while/enter/_179", "StatefulPartitionedCall/ocr_model_v1/bidirectional/backward_lstm/PartitionedCall/while/next_iteration/_226"], "attr": {"N": {"i": "2"}, "T": {"type": "DT_FLOAT"}}}, {"name": "StatefulPartitionedCall/ocr_model_v1/bidirectional/backward_lstm/PartitionedCall/while/merge/_189", "op": "Merge", "input": ["StatefulPartitionedCall/ocr_model_v1/bidirectional/backward_lstm/PartitionedCall/while/enter/_178", "StatefulPartitionedCall/ocr_model_v1/bidirectional/backward_lstm/PartitionedCall/while/next_iteration/_225"], "attr": {"N": {"i": "2"}, "T": {"type": "DT_VARIANT"}}}, {"name": "StatefulPartitionedCall/ocr_model_v1/bidirectional/backward_lstm/PartitionedCall/while/cond/_173/while/Less", "op": "Less", "input": ["StatefulPartitionedCall/ocr_model_v1/bidirectional/backward_lstm/PartitionedCall/while/merge/_188", "StatefulPartitionedCall/ocr_model_v1/bidirectional/backward_lstm/PartitionedCall/while/merge/_192", "^StatefulPartitionedCall/ocr_model_v1/bidirectional/backward_lstm/PartitionedCall/while/merge/_186"], "attr": {"T": {"type": "DT_INT32"}}}, {"name": "StatefulPartitionedCall/ocr_model_v1/bidirectional/forward_lstm/PartitionedCall/while/LoopCond/_137", "op": "LoopCond", "input": ["StatefulPartitionedCall/ocr_model_v1/bidirectional/forward_lstm/PartitionedCall/while/cond/_113/while/Less"]}, {"name": "StatefulPartitionedCall/ocr_model_v1/bidirectional/backward_lstm/PartitionedCall/while/LoopCond/_197", "op": "LoopCond", "input": ["StatefulPartitionedCall/ocr_model_v1/bidirectional/backward_lstm/PartitionedCall/while/cond/_173/while/Less"]}, {"name": "StatefulPartitionedCall/ocr_model_v1/bidirectional/forward_lstm/PartitionedCall/while/Func/StatefulPartitionedCall/ocr_model_v1/bidirectional/forward_lstm/PartitionedCall/input/_26_switch/_143", "op": "Switch", "input": ["StatefulPartitionedCall/ocr_model_v1/bidirectional/forward_lstm/PartitionedCall/while/merge/_131", "StatefulPartitionedCall/ocr_model_v1/bidirectional/forward_lstm/PartitionedCall/while/LoopCond/_137"], "attr": {"T": {"type": "DT_FLOAT"}}}, {"name": "StatefulPartitionedCall/ocr_model_v1/bidirectional/forward_lstm/PartitionedCall/while/StatefulPartitionedCall/ocr_model_v1/bidirectional/forward_lstm/PartitionedCall/TensorArrayUnstack/TensorListFromTensor_switch/_145", "op": "Switch", "input": ["StatefulPartitionedCall/ocr_model_v1/bidirectional/forward_lstm/PartitionedCall/while/merge/_133", "StatefulPartitionedCall/ocr_model_v1/bidirectional/forward_lstm/PartitionedCall/while/LoopCond/_137"], "attr": {"T": {"type": "DT_VARIANT"}}}, {"name": "StatefulPartitionedCall/ocr_model_v1/bidirectional/forward_lstm/PartitionedCall/while/Func/StatefulPartitionedCall/ocr_model_v1/bidirectional/forward_lstm/PartitionedCall/input/_27_switch/_146", "op": "Switch", "input": ["StatefulPartitionedCall/ocr_model_v1/bidirectional/forward_lstm/PartitionedCall/while/merge/_134", "StatefulPartitionedCall/ocr_model_v1/bidirectional/forward_lstm/PartitionedCall/while/LoopCond/_137"], "attr": {"T": {"type": "DT_FLOAT"}}}, {"name": "StatefulPartitionedCall/ocr_model_v1/bidirectional/forward_lstm/PartitionedCall/while/Func/StatefulPartitionedCall/ocr_model_v1/bidirectional/forward_lstm/PartitionedCall/input/_25_switch/_142", "op": "Switch", "input": ["StatefulPartitionedCall/ocr_model_v1/bidirectional/forward_lstm/PartitionedCall/while/merge/_130", "StatefulPartitionedCall/ocr_model_v1/bidirectional/forward_lstm/PartitionedCall/while/LoopCond/_137"], "attr": {"T": {"type": "DT_FLOAT"}}}, {"name": "StatefulPartitionedCall/ocr_model_v1/bidirectional/forward_lstm/PartitionedCall/while/Func/StatefulPartitionedCall/ocr_model_v1/bidirectional/forward_lstm/PartitionedCall/input/_28_switch/_147", "op": "Switch", "input": ["StatefulPartitionedCall/ocr_model_v1/bidirectional/forward_lstm/PartitionedCall/while/merge/_135", "StatefulPartitionedCall/ocr_model_v1/bidirectional/forward_lstm/PartitionedCall/while/LoopCond/_137"], "attr": {"T": {"type": "DT_FLOAT"}}}, {"name": "StatefulPartitionedCall/ocr_model_v1/bidirectional/forward_lstm/PartitionedCall/while/Func/StatefulPartitionedCall/ocr_model_v1/bidirectional/forward_lstm/PartitionedCall/input/_29_switch/_148", "op": "Switch", "input": ["StatefulPartitionedCall/ocr_model_v1/bidirectional/forward_lstm/PartitionedCall/while/merge/_136", "StatefulPartitionedCall/ocr_model_v1/bidirectional/forward_lstm/PartitionedCall/while/LoopCond/_137"], "attr": {"T": {"type": "DT_FLOAT"}}}, {"name": "StatefulPartitionedCall/ocr_model_v1/bidirectional/forward_lstm/PartitionedCall/while/StatefulPartitionedCall/ocr_model_v1/bidirectional/forward_lstm/PartitionedCall/time_switch/_140", "op": "Switch", "input": ["StatefulPartitionedCall/ocr_model_v1/bidirectional/forward_lstm/PartitionedCall/while/merge/_128", "StatefulPartitionedCall/ocr_model_v1/bidirectional/forward_lstm/PartitionedCall/while/LoopCond/_137"], "attr": {"T": {"type": "DT_INT32"}}}, {"name": "StatefulPartitionedCall/ocr_model_v1/bidirectional/forward_lstm/PartitionedCall/while/StatefulPartitionedCall/ocr_model_v1/bidirectional/forward_lstm/PartitionedCall/while/loop_counter_switch/_138", "op": "Switch", "input": ["StatefulPartitionedCall/ocr_model_v1/bidirectional/forward_lstm/PartitionedCall/while/merge/_126", "StatefulPartitionedCall/ocr_model_v1/bidirectional/forward_lstm/PartitionedCall/while/LoopCond/_137"], "attr": {"T": {"type": "DT_INT32"}}}, {"name": "StatefulPartitionedCall/ocr_model_v1/bidirectional/forward_lstm/PartitionedCall/while/StatefulPartitionedCall/ocr_model_v1/bidirectional/forward_lstm/PartitionedCall/TensorArrayV2_1_switch/_141", "op": "Switch", "input": ["StatefulPartitionedCall/ocr_model_v1/bidirectional/forward_lstm/PartitionedCall/while/merge/_129", "StatefulPartitionedCall/ocr_model_v1/bidirectional/forward_lstm/PartitionedCall/while/LoopCond/_137"], "attr": {"T": {"type": "DT_VARIANT"}}}, {"name": "StatefulPartitionedCall/ocr_model_v1/bidirectional/forward_lstm/PartitionedCall/while/StatefulPartitionedCall/ocr_model_v1/bidirectional/forward_lstm/PartitionedCall/strided_slice_switch/_144", "op": "Switch", "input": ["StatefulPartitionedCall/ocr_model_v1/bidirectional/forward_lstm/PartitionedCall/while/merge/_132", "StatefulPartitionedCall/ocr_model_v1/bidirectional/forward_lstm/PartitionedCall/while/LoopCond/_137"], "attr": {"T": {"type": "DT_INT32"}}}, {"name": "StatefulPartitionedCall/ocr_model_v1/bidirectional/backward_lstm/PartitionedCall/while/Func/StatefulPartitionedCall/ocr_model_v1/bidirectional/backward_lstm/PartitionedCall/input/_37_switch/_203", "op": "Switch", "input": ["StatefulPartitionedCall/ocr_model_v1/bidirectional/backward_lstm/PartitionedCall/while/merge/_191", "StatefulPartitionedCall/ocr_model_v1/bidirectional/backward_lstm/PartitionedCall/while/LoopCond/_197"], "attr": {"T": {"type": "DT_FLOAT"}}}, {"name": "StatefulPartitionedCall/ocr_model_v1/bidirectional/backward_lstm/PartitionedCall/while/StatefulPartitionedCall/ocr_model_v1/bidirectional/backward_lstm/PartitionedCall/TensorArrayUnstack/TensorListFromTensor_switch/_205", "op": "Switch", "input": ["StatefulPartitionedCall/ocr_model_v1/bidirectional/backward_lstm/PartitionedCall/while/merge/_193", "StatefulPartitionedCall/ocr_model_v1/bidirectional/backward_lstm/PartitionedCall/while/LoopCond/_197"], "attr": {"T": {"type": "DT_VARIANT"}}}, {"name": "StatefulPartitionedCall/ocr_model_v1/bidirectional/backward_lstm/PartitionedCall/while/Func/StatefulPartitionedCall/ocr_model_v1/bidirectional/backward_lstm/PartitionedCall/input/_38_switch/_206", "op": "Switch", "input": ["StatefulPartitionedCall/ocr_model_v1/bidirectional/backward_lstm/PartitionedCall/while/merge/_194", "StatefulPartitionedCall/ocr_model_v1/bidirectional/backward_lstm/PartitionedCall/while/LoopCond/_197"], "attr": {"T": {"type": "DT_FLOAT"}}}, {"name": "StatefulPartitionedCall/ocr_model_v1/bidirectional/backward_lstm/PartitionedCall/while/Func/StatefulPartitionedCall/ocr_model_v1/bidirectional/backward_lstm/PartitionedCall/input/_36_switch/_202", "op": "Switch", "input": ["StatefulPartitionedCall/ocr_model_v1/bidirectional/backward_lstm/PartitionedCall/while/merge/_190", "StatefulPartitionedCall/ocr_model_v1/bidirectional/backward_lstm/PartitionedCall/while/LoopCond/_197"], "attr": {"T": {"type": "DT_FLOAT"}}}, {"name": "StatefulPartitionedCall/ocr_model_v1/bidirectional/backward_lstm/PartitionedCall/while/Func/StatefulPartitionedCall/ocr_model_v1/bidirectional/backward_lstm/PartitionedCall/input/_39_switch/_207", "op": "Switch", "input": ["StatefulPartitionedCall/ocr_model_v1/bidirectional/backward_lstm/PartitionedCall/while/merge/_195", "StatefulPartitionedCall/ocr_model_v1/bidirectional/backward_lstm/PartitionedCall/while/LoopCond/_197"], "attr": {"T": {"type": "DT_FLOAT"}}}, {"name": "StatefulPartitionedCall/ocr_model_v1/bidirectional/backward_lstm/PartitionedCall/while/Func/StatefulPartitionedCall/ocr_model_v1/bidirectional/backward_lstm/PartitionedCall/input/_40_switch/_208", "op": "Switch", "input": ["StatefulPartitionedCall/ocr_model_v1/bidirectional/backward_lstm/PartitionedCall/while/merge/_196", "StatefulPartitionedCall/ocr_model_v1/bidirectional/backward_lstm/PartitionedCall/while/LoopCond/_197"], "attr": {"T": {"type": "DT_FLOAT"}}}, {"name": "StatefulPartitionedCall/ocr_model_v1/bidirectional/backward_lstm/PartitionedCall/while/StatefulPartitionedCall/ocr_model_v1/bidirectional/backward_lstm/PartitionedCall/time_switch/_200", "op": "Switch", "input": ["StatefulPartitionedCall/ocr_model_v1/bidirectional/backward_lstm/PartitionedCall/while/merge/_188", "StatefulPartitionedCall/ocr_model_v1/bidirectional/backward_lstm/PartitionedCall/while/LoopCond/_197"], "attr": {"T": {"type": "DT_INT32"}}}, {"name": "StatefulPartitionedCall/ocr_model_v1/bidirectional/backward_lstm/PartitionedCall/while/StatefulPartitionedCall/ocr_model_v1/bidirectional/backward_lstm/PartitionedCall/while/loop_counter_switch/_198", "op": "Switch", "input": ["StatefulPartitionedCall/ocr_model_v1/bidirectional/backward_lstm/PartitionedCall/while/merge/_186", "StatefulPartitionedCall/ocr_model_v1/bidirectional/backward_lstm/PartitionedCall/while/LoopCond/_197"], "attr": {"T": {"type": "DT_INT32"}}}, {"name": "StatefulPartitionedCall/ocr_model_v1/bidirectional/backward_lstm/PartitionedCall/while/StatefulPartitionedCall/ocr_model_v1/bidirectional/backward_lstm/PartitionedCall/TensorArrayV2_1_switch/_201", "op": "Switch", "input": ["StatefulPartitionedCall/ocr_model_v1/bidirectional/backward_lstm/PartitionedCall/while/merge/_189", "StatefulPartitionedCall/ocr_model_v1/bidirectional/backward_lstm/PartitionedCall/while/LoopCond/_197"], "attr": {"T": {"type": "DT_VARIANT"}}}, {"name": "StatefulPartitionedCall/ocr_model_v1/bidirectional/backward_lstm/PartitionedCall/while/StatefulPartitionedCall/ocr_model_v1/bidirectional/backward_lstm/PartitionedCall/strided_slice_switch/_204", "op": "Switch", "input": ["StatefulPartitionedCall/ocr_model_v1/bidirectional/backward_lstm/PartitionedCall/while/merge/_192", "StatefulPartitionedCall/ocr_model_v1/bidirectional/backward_lstm/PartitionedCall/while/LoopCond/_197"], "attr": {"T": {"type": "DT_INT32"}}}, {"name": "StatefulPartitionedCall/ocr_model_v1/bidirectional/forward_lstm/PartitionedCall/while/loop_body_control/_149", "op": "Identity", "input": ["StatefulPartitionedCall/ocr_model_v1/bidirectional/forward_lstm/PartitionedCall/while/StatefulPartitionedCall/ocr_model_v1/bidirectional/forward_lstm/PartitionedCall/while/loop_counter_switch/_138:1"], "attr": {"T": {"type": "DT_INT32"}}}, {"name": "StatefulPartitionedCall/ocr_model_v1/bidirectional/forward_lstm/PartitionedCall/while/exit/_153", "op": "Exit", "input": ["StatefulPartitionedCall/ocr_model_v1/bidirectional/forward_lstm/PartitionedCall/while/StatefulPartitionedCall/ocr_model_v1/bidirectional/forward_lstm/PartitionedCall/TensorArrayV2_1_switch/_141"], "attr": {"T": {"type": "DT_VARIANT"}}}, {"name": "StatefulPartitionedCall/ocr_model_v1/bidirectional/backward_lstm/PartitionedCall/while/loop_body_control/_209", "op": "Identity", "input": ["StatefulPartitionedCall/ocr_model_v1/bidirectional/backward_lstm/PartitionedCall/while/StatefulPartitionedCall/ocr_model_v1/bidirectional/backward_lstm/PartitionedCall/while/loop_counter_switch/_198:1"], "attr": {"T": {"type": "DT_INT32"}}}, {"name": "StatefulPartitionedCall/ocr_model_v1/bidirectional/backward_lstm/PartitionedCall/while/exit/_213", "op": "Exit", "input": ["StatefulPartitionedCall/ocr_model_v1/bidirectional/backward_lstm/PartitionedCall/while/StatefulPartitionedCall/ocr_model_v1/bidirectional/backward_lstm/PartitionedCall/TensorArrayV2_1_switch/_201"], "attr": {"T": {"type": "DT_VARIANT"}}}, {"name": "StatefulPartitionedCall/ocr_model_v1/bidirectional/forward_lstm/PartitionedCall/while/body/_114/while/split/split_dim", "op": "Const", "input": ["^StatefulPartitionedCall/ocr_model_v1/bidirectional/forward_lstm/PartitionedCall/while/loop_body_control/_149"], "attr": {"value": {"tensor": {"dtype": "DT_INT32", "tensorShape": {}}}, "dtype": {"type": "DT_INT32"}}}, {"name": "StatefulPartitionedCall/ocr_model_v1/bidirectional/forward_lstm/PartitionedCall/while/next_iteration/_169", "op": "NextIteration", "input": ["StatefulPartitionedCall/ocr_model_v1/bidirectional/forward_lstm/PartitionedCall/while/StatefulPartitionedCall/ocr_model_v1/bidirectional/forward_lstm/PartitionedCall/TensorArrayUnstack/TensorListFromTensor_switch/_145:1", "^StatefulPartitionedCall/ocr_model_v1/bidirectional/forward_lstm/PartitionedCall/while/loop_body_control/_149"], "attr": {"T": {"type": "DT_VARIANT"}}}, {"name": "StatefulPartitionedCall/ocr_model_v1/bidirectional/forward_lstm/PartitionedCall/while/body/_114/while/TensorArrayV2Read/TensorListGetItem/element_shape", "op": "Const", "input": ["^StatefulPartitionedCall/ocr_model_v1/bidirectional/forward_lstm/PartitionedCall/while/loop_body_control/_149"], "attr": {"value": {"tensor": {"dtype": "DT_INT32", "tensorShape": {"dim": [{"size": "2"}]}}}, "dtype": {"type": "DT_INT32"}}}, {"name": "StatefulPartitionedCall/ocr_model_v1/bidirectional/forward_lstm/PartitionedCall/while/next_iteration/_170", "op": "NextIteration", "input": ["StatefulPartitionedCall/ocr_model_v1/bidirectional/forward_lstm/PartitionedCall/while/Func/StatefulPartitionedCall/ocr_model_v1/bidirectional/forward_lstm/PartitionedCall/input/_27_switch/_146:1", "^StatefulPartitionedCall/ocr_model_v1/bidirectional/forward_lstm/PartitionedCall/while/loop_body_control/_149"], "attr": {"T": {"type": "DT_FLOAT"}}}, {"name": "StatefulPartitionedCall/ocr_model_v1/bidirectional/forward_lstm/PartitionedCall/while/next_iteration/_171", "op": "NextIteration", "input": ["StatefulPartitionedCall/ocr_model_v1/bidirectional/forward_lstm/PartitionedCall/while/Func/StatefulPartitionedCall/ocr_model_v1/bidirectional/forward_lstm/PartitionedCall/input/_28_switch/_147:1", "^StatefulPartitionedCall/ocr_model_v1/bidirectional/forward_lstm/PartitionedCall/while/loop_body_control/_149"], "attr": {"T": {"type": "DT_FLOAT"}}}, {"name": "StatefulPartitionedCall/ocr_model_v1/bidirectional/forward_lstm/PartitionedCall/while/body/_114/while/MatMul_1", "op": "MatMul", "input": ["StatefulPartitionedCall/ocr_model_v1/bidirectional/forward_lstm/PartitionedCall/while/Func/StatefulPartitionedCall/ocr_model_v1/bidirectional/forward_lstm/PartitionedCall/input/_25_switch/_142:1", "StatefulPartitionedCall/ocr_model_v1/bidirectional/forward_lstm/PartitionedCall/while/Func/StatefulPartitionedCall/ocr_model_v1/bidirectional/forward_lstm/PartitionedCall/input/_28_switch/_147:1", "^StatefulPartitionedCall/ocr_model_v1/bidirectional/forward_lstm/PartitionedCall/while/loop_body_control/_149"], "device": "/device:CPU:0", "attr": {"transpose_a": {"b": false}, "T": {"type": "DT_FLOAT"}, "transpose_b": {"b": false}}}, {"name": "StatefulPartitionedCall/ocr_model_v1/bidirectional/forward_lstm/PartitionedCall/while/next_iteration/_172", "op": "NextIteration", "input": ["StatefulPartitionedCall/ocr_model_v1/bidirectional/forward_lstm/PartitionedCall/while/Func/StatefulPartitionedCall/ocr_model_v1/bidirectional/forward_lstm/PartitionedCall/input/_29_switch/_148:1", "^StatefulPartitionedCall/ocr_model_v1/bidirectional/forward_lstm/PartitionedCall/while/loop_body_control/_149"], "attr": {"T": {"type": "DT_FLOAT"}}}, {"name": "Func/StatefulPartitionedCall/ocr_model_v1/bidirectional/forward_lstm/PartitionedCall/while/body/_114/input/_397", "op": "Identity", "input": ["StatefulPartitionedCall/ocr_model_v1/bidirectional/forward_lstm/PartitionedCall/while/StatefulPartitionedCall/ocr_model_v1/bidirectional/forward_lstm/PartitionedCall/time_switch/_140:1", "^StatefulPartitionedCall/ocr_model_v1/bidirectional/forward_lstm/PartitionedCall/while/loop_body_control/_149"], "attr": {"T": {"type": "DT_INT32"}}}, {"name": "StatefulPartitionedCall/ocr_model_v1/bidirectional/forward_lstm/PartitionedCall/while/body/_114/while/add_2/y", "op": "Const", "input": ["^StatefulPartitionedCall/ocr_model_v1/bidirectional/forward_lstm/PartitionedCall/while/loop_body_control/_149"], "attr": {"dtype": {"type": "DT_INT32"}, "value": {"tensor": {"dtype": "DT_INT32", "tensorShape": {}}}}}, {"name": "StatefulPartitionedCall/ocr_model_v1/bidirectional/forward_lstm/PartitionedCall/while/body/_114/while/add_3/y", "op": "Const", "input": ["^StatefulPartitionedCall/ocr_model_v1/bidirectional/forward_lstm/PartitionedCall/while/loop_body_control/_149"], "attr": {"value": {"tensor": {"dtype": "DT_INT32", "tensorShape": {}}}, "dtype": {"type": "DT_INT32"}}}, {"name": "StatefulPartitionedCall/ocr_model_v1/bidirectional/forward_lstm/PartitionedCall/while/next_iteration/_168", "op": "NextIteration", "input": ["StatefulPartitionedCall/ocr_model_v1/bidirectional/forward_lstm/PartitionedCall/while/StatefulPartitionedCall/ocr_model_v1/bidirectional/forward_lstm/PartitionedCall/strided_slice_switch/_144:1", "^StatefulPartitionedCall/ocr_model_v1/bidirectional/forward_lstm/PartitionedCall/while/loop_body_control/_149"], "attr": {"T": {"type": "DT_INT32"}}}, {"name": "StatefulPartitionedCall/ocr_model_v1/bidirectional/forward_lstm/PartitionedCall/TensorArrayV2Stack/TensorListStack", "op": "TensorListStack", "input": ["StatefulPartitionedCall/ocr_model_v1/bidirectional/forward_lstm/PartitionedCall/while/exit/_153", "StatefulPartitionedCall/ocr_model_v1/bidirectional/forward_lstm/PartitionedCall/TensorArrayV2Stack/TensorListStack/element_shape"], "attr": {"num_elements": {"i": "-1"}, "element_dtype": {"type": "DT_FLOAT"}}}, {"name": "StatefulPartitionedCall/ocr_model_v1/bidirectional/backward_lstm/PartitionedCall/while/body/_174/while/split/split_dim", "op": "Const", "input": ["^StatefulPartitionedCall/ocr_model_v1/bidirectional/backward_lstm/PartitionedCall/while/loop_body_control/_209"], "attr": {"value": {"tensor": {"dtype": "DT_INT32", "tensorShape": {}}}, "dtype": {"type": "DT_INT32"}}}, {"name": "StatefulPartitionedCall/ocr_model_v1/bidirectional/backward_lstm/PartitionedCall/while/next_iteration/_229", "op": "NextIteration", "input": ["StatefulPartitionedCall/ocr_model_v1/bidirectional/backward_lstm/PartitionedCall/while/StatefulPartitionedCall/ocr_model_v1/bidirectional/backward_lstm/PartitionedCall/TensorArrayUnstack/TensorListFromTensor_switch/_205:1", "^StatefulPartitionedCall/ocr_model_v1/bidirectional/backward_lstm/PartitionedCall/while/loop_body_control/_209"], "attr": {"T": {"type": "DT_VARIANT"}}}, {"name": "StatefulPartitionedCall/ocr_model_v1/bidirectional/backward_lstm/PartitionedCall/while/body/_174/while/TensorArrayV2Read/TensorListGetItem/element_shape", "op": "Const", "input": ["^StatefulPartitionedCall/ocr_model_v1/bidirectional/backward_lstm/PartitionedCall/while/loop_body_control/_209"], "attr": {"value": {"tensor": {"dtype": "DT_INT32", "tensorShape": {"dim": [{"size": "2"}]}}}, "dtype": {"type": "DT_INT32"}}}, {"name": "StatefulPartitionedCall/ocr_model_v1/bidirectional/backward_lstm/PartitionedCall/while/next_iteration/_230", "op": "NextIteration", "input": ["StatefulPartitionedCall/ocr_model_v1/bidirectional/backward_lstm/PartitionedCall/while/Func/StatefulPartitionedCall/ocr_model_v1/bidirectional/backward_lstm/PartitionedCall/input/_38_switch/_206:1", "^StatefulPartitionedCall/ocr_model_v1/bidirectional/backward_lstm/PartitionedCall/while/loop_body_control/_209"], "attr": {"T": {"type": "DT_FLOAT"}}}, {"name": "StatefulPartitionedCall/ocr_model_v1/bidirectional/backward_lstm/PartitionedCall/while/next_iteration/_231", "op": "NextIteration", "input": ["StatefulPartitionedCall/ocr_model_v1/bidirectional/backward_lstm/PartitionedCall/while/Func/StatefulPartitionedCall/ocr_model_v1/bidirectional/backward_lstm/PartitionedCall/input/_39_switch/_207:1", "^StatefulPartitionedCall/ocr_model_v1/bidirectional/backward_lstm/PartitionedCall/while/loop_body_control/_209"], "attr": {"T": {"type": "DT_FLOAT"}}}, {"name": "StatefulPartitionedCall/ocr_model_v1/bidirectional/backward_lstm/PartitionedCall/while/body/_174/while/MatMul_1", "op": "MatMul", "input": ["StatefulPartitionedCall/ocr_model_v1/bidirectional/backward_lstm/PartitionedCall/while/Func/StatefulPartitionedCall/ocr_model_v1/bidirectional/backward_lstm/PartitionedCall/input/_36_switch/_202:1", "StatefulPartitionedCall/ocr_model_v1/bidirectional/backward_lstm/PartitionedCall/while/Func/StatefulPartitionedCall/ocr_model_v1/bidirectional/backward_lstm/PartitionedCall/input/_39_switch/_207:1", "^StatefulPartitionedCall/ocr_model_v1/bidirectional/backward_lstm/PartitionedCall/while/loop_body_control/_209"], "device": "/device:CPU:0", "attr": {"T": {"type": "DT_FLOAT"}, "transpose_a": {"b": false}, "transpose_b": {"b": false}}}, {"name": "StatefulPartitionedCall/ocr_model_v1/bidirectional/backward_lstm/PartitionedCall/while/next_iteration/_232", "op": "NextIteration", "input": ["StatefulPartitionedCall/ocr_model_v1/bidirectional/backward_lstm/PartitionedCall/while/Func/StatefulPartitionedCall/ocr_model_v1/bidirectional/backward_lstm/PartitionedCall/input/_40_switch/_208:1", "^StatefulPartitionedCall/ocr_model_v1/bidirectional/backward_lstm/PartitionedCall/while/loop_body_control/_209"], "attr": {"T": {"type": "DT_FLOAT"}}}, {"name": "Func/StatefulPartitionedCall/ocr_model_v1/bidirectional/backward_lstm/PartitionedCall/while/body/_174/input/_434", "op": "Identity", "input": ["StatefulPartitionedCall/ocr_model_v1/bidirectional/backward_lstm/PartitionedCall/while/StatefulPartitionedCall/ocr_model_v1/bidirectional/backward_lstm/PartitionedCall/time_switch/_200:1", "^StatefulPartitionedCall/ocr_model_v1/bidirectional/backward_lstm/PartitionedCall/while/loop_body_control/_209"], "attr": {"T": {"type": "DT_INT32"}}}, {"name": "StatefulPartitionedCall/ocr_model_v1/bidirectional/backward_lstm/PartitionedCall/while/body/_174/while/add_2/y", "op": "Const", "input": ["^StatefulPartitionedCall/ocr_model_v1/bidirectional/backward_lstm/PartitionedCall/while/loop_body_control/_209"], "attr": {"dtype": {"type": "DT_INT32"}, "value": {"tensor": {"dtype": "DT_INT32", "tensorShape": {}}}}}, {"name": "StatefulPartitionedCall/ocr_model_v1/bidirectional/backward_lstm/PartitionedCall/while/body/_174/while/add_3/y", "op": "Const", "input": ["^StatefulPartitionedCall/ocr_model_v1/bidirectional/backward_lstm/PartitionedCall/while/loop_body_control/_209"], "attr": {"dtype": {"type": "DT_INT32"}, "value": {"tensor": {"dtype": "DT_INT32", "tensorShape": {}}}}}, {"name": "StatefulPartitionedCall/ocr_model_v1/bidirectional/backward_lstm/PartitionedCall/while/next_iteration/_228", "op": "NextIteration", "input": ["StatefulPartitionedCall/ocr_model_v1/bidirectional/backward_lstm/PartitionedCall/while/StatefulPartitionedCall/ocr_model_v1/bidirectional/backward_lstm/PartitionedCall/strided_slice_switch/_204:1", "^StatefulPartitionedCall/ocr_model_v1/bidirectional/backward_lstm/PartitionedCall/while/loop_body_control/_209"], "attr": {"T": {"type": "DT_INT32"}}}, {"name": "StatefulPartitionedCall/ocr_model_v1/bidirectional/backward_lstm/PartitionedCall/TensorArrayV2Stack/TensorListStack", "op": "TensorListStack", "input": ["StatefulPartitionedCall/ocr_model_v1/bidirectional/backward_lstm/PartitionedCall/while/exit/_213", "StatefulPartitionedCall/ocr_model_v1/bidirectional/backward_lstm/PartitionedCall/TensorArrayV2Stack/TensorListStack/element_shape"], "attr": {"num_elements": {"i": "-1"}, "element_dtype": {"type": "DT_FLOAT"}}}, {"name": "StatefulPartitionedCall/ocr_model_v1/bidirectional/forward_lstm/PartitionedCall/while/body/_114/while/TensorArrayV2Read/TensorListGetItem", "op": "TensorListGetItem", "input": ["StatefulPartitionedCall/ocr_model_v1/bidirectional/forward_lstm/PartitionedCall/while/StatefulPartitionedCall/ocr_model_v1/bidirectional/forward_lstm/PartitionedCall/TensorArrayUnstack/TensorListFromTensor_switch/_145:1", "Func/StatefulPartitionedCall/ocr_model_v1/bidirectional/forward_lstm/PartitionedCall/while/body/_114/input/_397", "StatefulPartitionedCall/ocr_model_v1/bidirectional/forward_lstm/PartitionedCall/while/body/_114/while/TensorArrayV2Read/TensorListGetItem/element_shape"], "attr": {"element_dtype": {"type": "DT_FLOAT"}}}, {"name": "StatefulPartitionedCall/ocr_model_v1/bidirectional/forward_lstm/PartitionedCall/while/body/_114/while/add_2", "op": "AddV2", "input": ["Func/StatefulPartitionedCall/ocr_model_v1/bidirectional/forward_lstm/PartitionedCall/while/body/_114/input/_397", "StatefulPartitionedCall/ocr_model_v1/bidirectional/forward_lstm/PartitionedCall/while/body/_114/while/add_2/y"], "attr": {"T": {"type": "DT_INT32"}}}, {"name": "StatefulPartitionedCall/ocr_model_v1/bidirectional/forward_lstm/PartitionedCall/while/body/_114/while/add_3", "op": "AddV2", "input": ["StatefulPartitionedCall/ocr_model_v1/bidirectional/forward_lstm/PartitionedCall/while/StatefulPartitionedCall/ocr_model_v1/bidirectional/forward_lstm/PartitionedCall/while/loop_counter_switch/_138:1", "StatefulPartitionedCall/ocr_model_v1/bidirectional/forward_lstm/PartitionedCall/while/body/_114/while/add_3/y"], "attr": {"T": {"type": "DT_INT32"}}}, {"name": "StatefulPartitionedCall/ocr_model_v1/bidirectional/forward_lstm/PartitionedCall/transpose_1", "op": "Transpose", "input": ["StatefulPartitionedCall/ocr_model_v1/bidirectional/forward_lstm/PartitionedCall/TensorArrayV2Stack/TensorListStack", "StatefulPartitionedCall/ocr_model_v1/bidirectional/forward_lstm/PartitionedCall/transpose_1/perm"], "attr": {"Tperm": {"type": "DT_INT32"}, "T": {"type": "DT_FLOAT"}}}, {"name": "StatefulPartitionedCall/ocr_model_v1/bidirectional/backward_lstm/PartitionedCall/while/body/_174/while/TensorArrayV2Read/TensorListGetItem", "op": "TensorListGetItem", "input": ["StatefulPartitionedCall/ocr_model_v1/bidirectional/backward_lstm/PartitionedCall/while/StatefulPartitionedCall/ocr_model_v1/bidirectional/backward_lstm/PartitionedCall/TensorArrayUnstack/TensorListFromTensor_switch/_205:1", "Func/StatefulPartitionedCall/ocr_model_v1/bidirectional/backward_lstm/PartitionedCall/while/body/_174/input/_434", "StatefulPartitionedCall/ocr_model_v1/bidirectional/backward_lstm/PartitionedCall/while/body/_174/while/TensorArrayV2Read/TensorListGetItem/element_shape"], "attr": {"element_dtype": {"type": "DT_FLOAT"}}}, {"name": "StatefulPartitionedCall/ocr_model_v1/bidirectional/backward_lstm/PartitionedCall/while/body/_174/while/add_2", "op": "AddV2", "input": ["Func/StatefulPartitionedCall/ocr_model_v1/bidirectional/backward_lstm/PartitionedCall/while/body/_174/input/_434", "StatefulPartitionedCall/ocr_model_v1/bidirectional/backward_lstm/PartitionedCall/while/body/_174/while/add_2/y"], "attr": {"T": {"type": "DT_INT32"}}}, {"name": "StatefulPartitionedCall/ocr_model_v1/bidirectional/backward_lstm/PartitionedCall/while/body/_174/while/add_3", "op": "AddV2", "input": ["StatefulPartitionedCall/ocr_model_v1/bidirectional/backward_lstm/PartitionedCall/while/StatefulPartitionedCall/ocr_model_v1/bidirectional/backward_lstm/PartitionedCall/while/loop_counter_switch/_198:1", "StatefulPartitionedCall/ocr_model_v1/bidirectional/backward_lstm/PartitionedCall/while/body/_174/while/add_3/y"], "attr": {"T": {"type": "DT_INT32"}}}, {"name": "StatefulPartitionedCall/ocr_model_v1/bidirectional/backward_lstm/PartitionedCall/transpose_1", "op": "Transpose", "input": ["StatefulPartitionedCall/ocr_model_v1/bidirectional/backward_lstm/PartitionedCall/TensorArrayV2Stack/TensorListStack", "StatefulPartitionedCall/ocr_model_v1/bidirectional/backward_lstm/PartitionedCall/transpose_1/perm"], "attr": {"T": {"type": "DT_FLOAT"}, "Tperm": {"type": "DT_INT32"}}}, {"name": "StatefulPartitionedCall/ocr_model_v1/bidirectional/forward_lstm/PartitionedCall/while/body/_114/while/MatMul", "op": "MatMul", "input": ["StatefulPartitionedCall/ocr_model_v1/bidirectional/forward_lstm/PartitionedCall/while/body/_114/while/TensorArrayV2Read/TensorListGetItem", "StatefulPartitionedCall/ocr_model_v1/bidirectional/forward_lstm/PartitionedCall/while/Func/StatefulPartitionedCall/ocr_model_v1/bidirectional/forward_lstm/PartitionedCall/input/_27_switch/_146:1"], "device": "/device:CPU:0", "attr": {"transpose_a": {"b": false}, "T": {"type": "DT_FLOAT"}, "transpose_b": {"b": false}}}, {"name": "StatefulPartitionedCall/ocr_model_v1/bidirectional/forward_lstm/PartitionedCall/while/next_iteration/_164", "op": "NextIteration", "input": ["StatefulPartitionedCall/ocr_model_v1/bidirectional/forward_lstm/PartitionedCall/while/body/_114/while/add_2", "^StatefulPartitionedCall/ocr_model_v1/bidirectional/forward_lstm/PartitionedCall/while/loop_body_control/_149"], "attr": {"T": {"type": "DT_INT32"}}}, {"name": "StatefulPartitionedCall/ocr_model_v1/bidirectional/forward_lstm/PartitionedCall/while/next_iteration/_162", "op": "NextIteration", "input": ["StatefulPartitionedCall/ocr_model_v1/bidirectional/forward_lstm/PartitionedCall/while/body/_114/while/add_3", "^StatefulPartitionedCall/ocr_model_v1/bidirectional/forward_lstm/PartitionedCall/while/loop_body_control/_149"], "attr": {"T": {"type": "DT_INT32"}}}, {"name": "StatefulPartitionedCall/ocr_model_v1/bidirectional/backward_lstm/PartitionedCall/while/body/_174/while/MatMul", "op": "MatMul", "input": ["StatefulPartitionedCall/ocr_model_v1/bidirectional/backward_lstm/PartitionedCall/while/body/_174/while/TensorArrayV2Read/TensorListGetItem", "StatefulPartitionedCall/ocr_model_v1/bidirectional/backward_lstm/PartitionedCall/while/Func/StatefulPartitionedCall/ocr_model_v1/bidirectional/backward_lstm/PartitionedCall/input/_38_switch/_206:1"], "device": "/device:CPU:0", "attr": {"transpose_b": {"b": false}, "transpose_a": {"b": false}, "T": {"type": "DT_FLOAT"}}}, {"name": "StatefulPartitionedCall/ocr_model_v1/bidirectional/backward_lstm/PartitionedCall/while/next_iteration/_224", "op": "NextIteration", "input": ["StatefulPartitionedCall/ocr_model_v1/bidirectional/backward_lstm/PartitionedCall/while/body/_174/while/add_2", "^StatefulPartitionedCall/ocr_model_v1/bidirectional/backward_lstm/PartitionedCall/while/loop_body_control/_209"], "attr": {"T": {"type": "DT_INT32"}}}, {"name": "StatefulPartitionedCall/ocr_model_v1/bidirectional/backward_lstm/PartitionedCall/while/next_iteration/_222", "op": "NextIteration", "input": ["StatefulPartitionedCall/ocr_model_v1/bidirectional/backward_lstm/PartitionedCall/while/body/_174/while/add_3", "^StatefulPartitionedCall/ocr_model_v1/bidirectional/backward_lstm/PartitionedCall/while/loop_body_control/_209"], "attr": {"T": {"type": "DT_INT32"}}}, {"name": "StatefulPartitionedCall/ocr_model_v1/bidirectional/ReverseV2", "op": "ReverseV2", "input": ["StatefulPartitionedCall/ocr_model_v1/bidirectional/backward_lstm/PartitionedCall/transpose_1", "StatefulPartitionedCall/ocr_model_v1/bidirectional/ReverseV2/axis"], "attr": {"T": {"type": "DT_FLOAT"}, "Tidx": {"type": "DT_INT32"}}}, {"name": "StatefulPartitionedCall/ocr_model_v1/bidirectional/forward_lstm/PartitionedCall/while/body/_114/while/add", "op": "AddV2", "input": ["StatefulPartitionedCall/ocr_model_v1/bidirectional/forward_lstm/PartitionedCall/while/body/_114/while/MatMul", "StatefulPartitionedCall/ocr_model_v1/bidirectional/forward_lstm/PartitionedCall/while/body/_114/while/MatMul_1"], "attr": {"T": {"type": "DT_FLOAT"}}}, {"name": "StatefulPartitionedCall/ocr_model_v1/bidirectional/backward_lstm/PartitionedCall/while/body/_174/while/add", "op": "AddV2", "input": ["StatefulPartitionedCall/ocr_model_v1/bidirectional/backward_lstm/PartitionedCall/while/body/_174/while/MatMul", "StatefulPartitionedCall/ocr_model_v1/bidirectional/backward_lstm/PartitionedCall/while/body/_174/while/MatMul_1"], "attr": {"T": {"type": "DT_FLOAT"}}}, {"name": "StatefulPartitionedCall/ocr_model_v1/bidirectional/concat", "op": "ConcatV2", "input": ["StatefulPartitionedCall/ocr_model_v1/bidirectional/forward_lstm/PartitionedCall/transpose_1", "StatefulPartitionedCall/ocr_model_v1/bidirectional/ReverseV2", "StatefulPartitionedCall/ocr_model_v1/bidirectional/concat/axis"], "attr": {"N": {"i": "2"}, "T": {"type": "DT_FLOAT"}, "Tidx": {"type": "DT_INT32"}}}, {"name": "StatefulPartitionedCall/ocr_model_v1/bidirectional/forward_lstm/PartitionedCall/while/body/_114/while/BiasAdd", "op": "BiasAdd", "input": ["StatefulPartitionedCall/ocr_model_v1/bidirectional/forward_lstm/PartitionedCall/while/body/_114/while/add", "StatefulPartitionedCall/ocr_model_v1/bidirectional/forward_lstm/PartitionedCall/while/Func/StatefulPartitionedCall/ocr_model_v1/bidirectional/forward_lstm/PartitionedCall/input/_29_switch/_148:1"], "attr": {"T": {"type": "DT_FLOAT"}, "data_format": {"s": "TkhXQw=="}}}, {"name": "StatefulPartitionedCall/ocr_model_v1/bidirectional/backward_lstm/PartitionedCall/while/body/_174/while/BiasAdd", "op": "BiasAdd", "input": ["StatefulPartitionedCall/ocr_model_v1/bidirectional/backward_lstm/PartitionedCall/while/body/_174/while/add", "StatefulPartitionedCall/ocr_model_v1/bidirectional/backward_lstm/PartitionedCall/while/Func/StatefulPartitionedCall/ocr_model_v1/bidirectional/backward_lstm/PartitionedCall/input/_40_switch/_208:1"], "attr": {"data_format": {"s": "TkhXQw=="}, "T": {"type": "DT_FLOAT"}}}, {"name": "StatefulPartitionedCall/ocr_model_v1/bidirectional_1/forward_lstm_1/Shape", "op": "Shape", "input": ["StatefulPartitionedCall/ocr_model_v1/bidirectional/concat"], "attr": {"T": {"type": "DT_FLOAT"}, "out_type": {"type": "DT_INT32"}}}, {"name": "StatefulPartitionedCall/ocr_model_v1/bidirectional_1/forward_lstm_1/PartitionedCall/transpose", "op": "Transpose", "input": ["StatefulPartitionedCall/ocr_model_v1/bidirectional/concat", "StatefulPartitionedCall/ocr_model_v1/bidirectional_1/forward_lstm_1/PartitionedCall/transpose/perm"], "attr": {"Tperm": {"type": "DT_INT32"}, "T": {"type": "DT_FLOAT"}}}, {"name": "StatefulPartitionedCall/ocr_model_v1/bidirectional_1/backward_lstm_1/Shape", "op": "Shape", "input": ["StatefulPartitionedCall/ocr_model_v1/bidirectional/concat"], "attr": {"T": {"type": "DT_FLOAT"}, "out_type": {"type": "DT_INT32"}}}, {"name": "StatefulPartitionedCall/ocr_model_v1/bidirectional_1/backward_lstm_1/PartitionedCall/transpose", "op": "Transpose", "input": ["StatefulPartitionedCall/ocr_model_v1/bidirectional/concat", "StatefulPartitionedCall/ocr_model_v1/bidirectional_1/backward_lstm_1/PartitionedCall/transpose/perm"], "attr": {"T": {"type": "DT_FLOAT"}, "Tperm": {"type": "DT_INT32"}}}, {"name": "StatefulPartitionedCall/ocr_model_v1/bidirectional/forward_lstm/PartitionedCall/while/body/_114/while/split", "op": "Split", "input": ["StatefulPartitionedCall/ocr_model_v1/bidirectional/forward_lstm/PartitionedCall/while/body/_114/while/split/split_dim", "StatefulPartitionedCall/ocr_model_v1/bidirectional/forward_lstm/PartitionedCall/while/body/_114/while/BiasAdd"], "attr": {"num_split": {"i": "4"}, "T": {"type": "DT_FLOAT"}}}, {"name": "StatefulPartitionedCall/ocr_model_v1/bidirectional/backward_lstm/PartitionedCall/while/body/_174/while/split", "op": "Split", "input": ["StatefulPartitionedCall/ocr_model_v1/bidirectional/backward_lstm/PartitionedCall/while/body/_174/while/split/split_dim", "StatefulPartitionedCall/ocr_model_v1/bidirectional/backward_lstm/PartitionedCall/while/body/_174/while/BiasAdd"], "attr": {"T": {"type": "DT_FLOAT"}, "num_split": {"i": "4"}}}, {"name": "StatefulPartitionedCall/ocr_model_v1/bidirectional_1/forward_lstm_1/strided_slice", "op": "StridedSlice", "input": ["StatefulPartitionedCall/ocr_model_v1/bidirectional_1/forward_lstm_1/Shape", "StatefulPartitionedCall/ocr_model_v1/bidirectional_1/forward_lstm_1/strided_slice/stack", "StatefulPartitionedCall/ocr_model_v1/bidirectional_1/forward_lstm_1/strided_slice/stack_1", "StatefulPartitionedCall/ocr_model_v1/bidirectional_1/forward_lstm_1/strided_slice/stack_2"], "attr": {"T": {"type": "DT_INT32"}, "end_mask": {"i": "0"}, "Index": {"type": "DT_INT32"}, "begin_mask": {"i": "0"}, "new_axis_mask": {"i": "0"}, "ellipsis_mask": {"i": "0"}, "shrink_axis_mask": {"i": "1"}}}, {"name": "StatefulPartitionedCall/ocr_model_v1/bidirectional_1/forward_lstm_1/PartitionedCall/TensorArrayUnstack/TensorListFromTensor", "op": "TensorListFromTensor", "input": ["StatefulPartitionedCall/ocr_model_v1/bidirectional_1/forward_lstm_1/PartitionedCall/transpose", "StatefulPartitionedCall/ocr_model_v1/bidirectional_1/forward_lstm_1/PartitionedCall/TensorArrayUnstack/TensorListFromTensor/element_shape"], "attr": {"element_dtype": {"type": "DT_FLOAT"}, "shape_type": {"type": "DT_INT32"}}, "experimentalType": {"typeId": "TFT_PRODUCT", "args": [{"typeId": "TFT_ARRAY", "args": [{"typeId": "TFT_TENSOR", "args": [{"typeId": "TFT_FLOAT"}]}]}]}}, {"name": "StatefulPartitionedCall/ocr_model_v1/bidirectional_1/forward_lstm_1/PartitionedCall/Shape", "op": "Shape", "input": ["StatefulPartitionedCall/ocr_model_v1/bidirectional_1/forward_lstm_1/PartitionedCall/transpose"], "attr": {"T": {"type": "DT_FLOAT"}, "out_type": {"type": "DT_INT32"}}}, {"name": "StatefulPartitionedCall/ocr_model_v1/bidirectional_1/backward_lstm_1/strided_slice", "op": "StridedSlice", "input": ["StatefulPartitionedCall/ocr_model_v1/bidirectional_1/backward_lstm_1/Shape", "StatefulPartitionedCall/ocr_model_v1/bidirectional_1/backward_lstm_1/strided_slice/stack", "StatefulPartitionedCall/ocr_model_v1/bidirectional_1/backward_lstm_1/strided_slice/stack_1", "StatefulPartitionedCall/ocr_model_v1/bidirectional_1/backward_lstm_1/strided_slice/stack_2"], "attr": {"end_mask": {"i": "0"}, "ellipsis_mask": {"i": "0"}, "T": {"type": "DT_INT32"}, "Index": {"type": "DT_INT32"}, "new_axis_mask": {"i": "0"}, "begin_mask": {"i": "0"}, "shrink_axis_mask": {"i": "1"}}}, {"name": "StatefulPartitionedCall/ocr_model_v1/bidirectional_1/backward_lstm_1/PartitionedCall/ReverseV2", "op": "ReverseV2", "input": ["StatefulPartitionedCall/ocr_model_v1/bidirectional_1/backward_lstm_1/PartitionedCall/transpose", "StatefulPartitionedCall/ocr_model_v1/bidirectional_1/backward_lstm_1/PartitionedCall/ReverseV2/axis"], "attr": {"T": {"type": "DT_FLOAT"}, "Tidx": {"type": "DT_INT32"}}}, {"name": "StatefulPartitionedCall/ocr_model_v1/bidirectional_1/backward_lstm_1/PartitionedCall/Shape", "op": "Shape", "input": ["StatefulPartitionedCall/ocr_model_v1/bidirectional_1/backward_lstm_1/PartitionedCall/transpose"], "attr": {"out_type": {"type": "DT_INT32"}, "T": {"type": "DT_FLOAT"}}}, {"name": "StatefulPartitionedCall/ocr_model_v1/bidirectional/forward_lstm/PartitionedCall/while/body/_114/while/Sigmoid", "op": "Sigmoid", "input": ["StatefulPartitionedCall/ocr_model_v1/bidirectional/forward_lstm/PartitionedCall/while/body/_114/while/split"], "attr": {"T": {"type": "DT_FLOAT"}}}, {"name": "StatefulPartitionedCall/ocr_model_v1/bidirectional/forward_lstm/PartitionedCall/while/body/_114/while/Sigmoid_1", "op": "Sigmoid", "input": ["StatefulPartitionedCall/ocr_model_v1/bidirectional/forward_lstm/PartitionedCall/while/body/_114/while/split:1"], "attr": {"T": {"type": "DT_FLOAT"}}}, {"name": "StatefulPartitionedCall/ocr_model_v1/bidirectional/forward_lstm/PartitionedCall/while/body/_114/while/Tanh", "op": "Tanh", "input": ["StatefulPartitionedCall/ocr_model_v1/bidirectional/forward_lstm/PartitionedCall/while/body/_114/while/split:2"], "attr": {"T": {"type": "DT_FLOAT"}}}, {"name": "StatefulPartitionedCall/ocr_model_v1/bidirectional/forward_lstm/PartitionedCall/while/body/_114/while/Sigmoid_2", "op": "Sigmoid", "input": ["StatefulPartitionedCall/ocr_model_v1/bidirectional/forward_lstm/PartitionedCall/while/body/_114/while/split:3"], "attr": {"T": {"type": "DT_FLOAT"}}}, {"name": "StatefulPartitionedCall/ocr_model_v1/bidirectional/backward_lstm/PartitionedCall/while/body/_174/while/Sigmoid", "op": "Sigmoid", "input": ["StatefulPartitionedCall/ocr_model_v1/bidirectional/backward_lstm/PartitionedCall/while/body/_174/while/split"], "attr": {"T": {"type": "DT_FLOAT"}}}, {"name": "StatefulPartitionedCall/ocr_model_v1/bidirectional/backward_lstm/PartitionedCall/while/body/_174/while/Sigmoid_1", "op": "Sigmoid", "input": ["StatefulPartitionedCall/ocr_model_v1/bidirectional/backward_lstm/PartitionedCall/while/body/_174/while/split:1"], "attr": {"T": {"type": "DT_FLOAT"}}}, {"name": "StatefulPartitionedCall/ocr_model_v1/bidirectional/backward_lstm/PartitionedCall/while/body/_174/while/Tanh", "op": "Tanh", "input": ["StatefulPartitionedCall/ocr_model_v1/bidirectional/backward_lstm/PartitionedCall/while/body/_174/while/split:2"], "attr": {"T": {"type": "DT_FLOAT"}}}, {"name": "StatefulPartitionedCall/ocr_model_v1/bidirectional/backward_lstm/PartitionedCall/while/body/_174/while/Sigmoid_2", "op": "Sigmoid", "input": ["StatefulPartitionedCall/ocr_model_v1/bidirectional/backward_lstm/PartitionedCall/while/body/_174/while/split:3"], "attr": {"T": {"type": "DT_FLOAT"}}}, {"name": "StatefulPartitionedCall/ocr_model_v1/bidirectional_1/forward_lstm_1/zeros_1/packed", "op": "Pack", "input": ["StatefulPartitionedCall/ocr_model_v1/bidirectional_1/forward_lstm_1/strided_slice", "StatefulPartitionedCall/ocr_model_v1/bidirectional_1/forward_lstm_1/zeros_1/packed/1"], "attr": {"T": {"type": "DT_INT32"}, "N": {"i": "2"}, "axis": {"i": "0"}}}, {"name": "StatefulPartitionedCall/ocr_model_v1/bidirectional_1/forward_lstm_1/zeros/packed", "op": "Pack", "input": ["StatefulPartitionedCall/ocr_model_v1/bidirectional_1/forward_lstm_1/strided_slice", "StatefulPartitionedCall/ocr_model_v1/bidirectional_1/forward_lstm_1/zeros/packed/1"], "attr": {"T": {"type": "DT_INT32"}, "axis": {"i": "0"}, "N": {"i": "2"}}}, {"name": "StatefulPartitionedCall/ocr_model_v1/bidirectional_1/forward_lstm_1/PartitionedCall/while/enter/_242", "op": "Enter", "input": ["StatefulPartitionedCall/ocr_model_v1/bidirectional_1/forward_lstm_1/PartitionedCall/TensorArrayUnstack/TensorListFromTensor"], "attr": {"parallel_iterations": {"i": "32"}, "is_constant": {"b": false}, "T": {"type": "DT_VARIANT"}, "frame_name": {"s": "U3RhdGVmdWxQYXJ0aXRpb25lZENhbGwvb2NyX21vZGVsX3YxL2JpZGlyZWN0aW9uYWxfMS9mb3J3YXJkX2xzdG1fMS9QYXJ0aXRpb25lZENhbGwvd2hpbGU="}}}, {"name": "StatefulPartitionedCall/ocr_model_v1/bidirectional_1/forward_lstm_1/PartitionedCall/strided_slice", "op": "StridedSlice", "input": ["StatefulPartitionedCall/ocr_model_v1/bidirectional_1/forward_lstm_1/PartitionedCall/Shape", "StatefulPartitionedCall/ocr_model_v1/bidirectional_1/forward_lstm_1/PartitionedCall/strided_slice/stack", "StatefulPartitionedCall/ocr_model_v1/bidirectional_1/forward_lstm_1/PartitionedCall/strided_slice/stack_1", "StatefulPartitionedCall/ocr_model_v1/bidirectional_1/forward_lstm_1/PartitionedCall/strided_slice/stack_2"], "attr": {"new_axis_mask": {"i": "0"}, "T": {"type": "DT_INT32"}, "end_mask": {"i": "0"}, "Index": {"type": "DT_INT32"}, "ellipsis_mask": {"i": "0"}, "begin_mask": {"i": "0"}, "shrink_axis_mask": {"i": "1"}}}, {"name": "StatefulPartitionedCall/ocr_model_v1/bidirectional_1/backward_lstm_1/zeros_1/packed", "op": "Pack", "input": ["StatefulPartitionedCall/ocr_model_v1/bidirectional_1/backward_lstm_1/strided_slice", "StatefulPartitionedCall/ocr_model_v1/bidirectional_1/backward_lstm_1/zeros_1/packed/1"], "attr": {"axis": {"i": "0"}, "T": {"type": "DT_INT32"}, "N": {"i": "2"}}}, {"name": "StatefulPartitionedCall/ocr_model_v1/bidirectional_1/backward_lstm_1/zeros/packed", "op": "Pack", "input": ["StatefulPartitionedCall/ocr_model_v1/bidirectional_1/backward_lstm_1/strided_slice", "StatefulPartitionedCall/ocr_model_v1/bidirectional_1/backward_lstm_1/zeros/packed/1"], "attr": {"axis": {"i": "0"}, "N": {"i": "2"}, "T": {"type": "DT_INT32"}}}, {"name": "StatefulPartitionedCall/ocr_model_v1/bidirectional_1/backward_lstm_1/PartitionedCall/TensorArrayUnstack/TensorListFromTensor", "op": "TensorListFromTensor", "input": ["StatefulPartitionedCall/ocr_model_v1/bidirectional_1/backward_lstm_1/PartitionedCall/ReverseV2", "StatefulPartitionedCall/ocr_model_v1/bidirectional_1/backward_lstm_1/PartitionedCall/TensorArrayUnstack/TensorListFromTensor/element_shape"], "attr": {"element_dtype": {"type": "DT_FLOAT"}, "shape_type": {"type": "DT_INT32"}}, "experimentalType": {"typeId": "TFT_PRODUCT", "args": [{"typeId": "TFT_ARRAY", "args": [{"typeId": "TFT_TENSOR", "args": [{"typeId": "TFT_FLOAT"}]}]}]}}, {"name": "StatefulPartitionedCall/ocr_model_v1/bidirectional_1/backward_lstm_1/PartitionedCall/strided_slice", "op": "StridedSlice", "input": ["StatefulPartitionedCall/ocr_model_v1/bidirectional_1/backward_lstm_1/PartitionedCall/Shape", "StatefulPartitionedCall/ocr_model_v1/bidirectional_1/backward_lstm_1/PartitionedCall/strided_slice/stack", "StatefulPartitionedCall/ocr_model_v1/bidirectional_1/backward_lstm_1/PartitionedCall/strided_slice/stack_1", "StatefulPartitionedCall/ocr_model_v1/bidirectional_1/backward_lstm_1/PartitionedCall/strided_slice/stack_2"], "attr": {"end_mask": {"i": "0"}, "Index": {"type": "DT_INT32"}, "shrink_axis_mask": {"i": "1"}, "T": {"type": "DT_INT32"}, "ellipsis_mask": {"i": "0"}, "new_axis_mask": {"i": "0"}, "begin_mask": {"i": "0"}}}, {"name": "StatefulPartitionedCall/ocr_model_v1/bidirectional/forward_lstm/PartitionedCall/while/body/_114/while/mul", "op": "Mul", "input": ["StatefulPartitionedCall/ocr_model_v1/bidirectional/forward_lstm/PartitionedCall/while/body/_114/while/Sigmoid_1", "StatefulPartitionedCall/ocr_model_v1/bidirectional/forward_lstm/PartitionedCall/while/Func/StatefulPartitionedCall/ocr_model_v1/bidirectional/forward_lstm/PartitionedCall/input/_26_switch/_143:1"], "attr": {"T": {"type": "DT_FLOAT"}}}, {"name": "StatefulPartitionedCall/ocr_model_v1/bidirectional/forward_lstm/PartitionedCall/while/body/_114/while/mul_1", "op": "Mul", "input": ["StatefulPartitionedCall/ocr_model_v1/bidirectional/forward_lstm/PartitionedCall/while/body/_114/while/Sigmoid", "StatefulPartitionedCall/ocr_model_v1/bidirectional/forward_lstm/PartitionedCall/while/body/_114/while/Tanh"], "attr": {"T": {"type": "DT_FLOAT"}}}, {"name": "StatefulPartitionedCall/ocr_model_v1/bidirectional/backward_lstm/PartitionedCall/while/body/_174/while/mul", "op": "Mul", "input": ["StatefulPartitionedCall/ocr_model_v1/bidirectional/backward_lstm/PartitionedCall/while/body/_174/while/Sigmoid_1", "StatefulPartitionedCall/ocr_model_v1/bidirectional/backward_lstm/PartitionedCall/while/Func/StatefulPartitionedCall/ocr_model_v1/bidirectional/backward_lstm/PartitionedCall/input/_37_switch/_203:1"], "attr": {"T": {"type": "DT_FLOAT"}}}, {"name": "StatefulPartitionedCall/ocr_model_v1/bidirectional/backward_lstm/PartitionedCall/while/body/_174/while/mul_1", "op": "Mul", "input": ["StatefulPartitionedCall/ocr_model_v1/bidirectional/backward_lstm/PartitionedCall/while/body/_174/while/Sigmoid", "StatefulPartitionedCall/ocr_model_v1/bidirectional/backward_lstm/PartitionedCall/while/body/_174/while/Tanh"], "attr": {"T": {"type": "DT_FLOAT"}}}, {"name": "StatefulPartitionedCall/ocr_model_v1/bidirectional_1/forward_lstm_1/zeros_1", "op": "Fill", "input": ["StatefulPartitionedCall/ocr_model_v1/bidirectional_1/forward_lstm_1/zeros_1/packed", "StatefulPartitionedCall/ocr_model_v1/bidirectional_1/forward_lstm_1/zeros_1/Const"], "attr": {"index_type": {"type": "DT_INT32"}, "T": {"type": "DT_FLOAT"}}}, {"name": "StatefulPartitionedCall/ocr_model_v1/bidirectional_1/forward_lstm_1/zeros", "op": "Fill", "input": ["StatefulPartitionedCall/ocr_model_v1/bidirectional_1/forward_lstm_1/zeros/packed", "StatefulPartitionedCall/ocr_model_v1/bidirectional_1/forward_lstm_1/zeros/Const"], "attr": {"T": {"type": "DT_FLOAT"}, "index_type": {"type": "DT_INT32"}}}, {"name": "StatefulPartitionedCall/ocr_model_v1/bidirectional_1/forward_lstm_1/PartitionedCall/while/merge/_253", "op": "Merge", "input": ["StatefulPartitionedCall/ocr_model_v1/bidirectional_1/forward_lstm_1/PartitionedCall/while/enter/_242", "StatefulPartitionedCall/ocr_model_v1/bidirectional_1/forward_lstm_1/PartitionedCall/while/next_iteration/_289"], "attr": {"N": {"i": "2"}, "T": {"type": "DT_VARIANT"}}}, {"name": "StatefulPartitionedCall/ocr_model_v1/bidirectional_1/forward_lstm_1/PartitionedCall/TensorArrayV2_1", "op": "TensorListReserve", "input": ["StatefulPartitionedCall/ocr_model_v1/bidirectional_1/forward_lstm_1/PartitionedCall/TensorArrayV2_1/element_shape", "StatefulPartitionedCall/ocr_model_v1/bidirectional_1/forward_lstm_1/PartitionedCall/strided_slice"], "attr": {"element_dtype": {"type": "DT_FLOAT"}, "shape_type": {"type": "DT_INT32"}}, "experimentalType": {"typeId": "TFT_PRODUCT", "args": [{"typeId": "TFT_ARRAY", "args": [{"typeId": "TFT_TENSOR", "args": [{"typeId": "TFT_FLOAT"}]}]}]}}, {"name": "StatefulPartitionedCall/ocr_model_v1/bidirectional_1/forward_lstm_1/PartitionedCall/while/enter/_241", "op": "Enter", "input": ["StatefulPartitionedCall/ocr_model_v1/bidirectional_1/forward_lstm_1/PartitionedCall/strided_slice"], "attr": {"frame_name": {"s": "U3RhdGVmdWxQYXJ0aXRpb25lZENhbGwvb2NyX21vZGVsX3YxL2JpZGlyZWN0aW9uYWxfMS9mb3J3YXJkX2xzdG1fMS9QYXJ0aXRpb25lZENhbGwvd2hpbGU="}, "parallel_iterations": {"i": "32"}, "is_constant": {"b": false}, "T": {"type": "DT_INT32"}}}, {"name": "StatefulPartitionedCall/ocr_model_v1/bidirectional_1/backward_lstm_1/zeros_1", "op": "Fill", "input": ["StatefulPartitionedCall/ocr_model_v1/bidirectional_1/backward_lstm_1/zeros_1/packed", "StatefulPartitionedCall/ocr_model_v1/bidirectional_1/backward_lstm_1/zeros_1/Const"], "attr": {"T": {"type": "DT_FLOAT"}, "index_type": {"type": "DT_INT32"}}}, {"name": "StatefulPartitionedCall/ocr_model_v1/bidirectional_1/backward_lstm_1/zeros", "op": "Fill", "input": ["StatefulPartitionedCall/ocr_model_v1/bidirectional_1/backward_lstm_1/zeros/packed", "StatefulPartitionedCall/ocr_model_v1/bidirectional_1/backward_lstm_1/zeros/Const"], "attr": {"index_type": {"type": "DT_INT32"}, "T": {"type": "DT_FLOAT"}}}, {"name": "StatefulPartitionedCall/ocr_model_v1/bidirectional_1/backward_lstm_1/PartitionedCall/while/enter/_302", "op": "Enter", "input": ["StatefulPartitionedCall/ocr_model_v1/bidirectional_1/backward_lstm_1/PartitionedCall/TensorArrayUnstack/TensorListFromTensor"], "attr": {"is_constant": {"b": false}, "parallel_iterations": {"i": "32"}, "T": {"type": "DT_VARIANT"}, "frame_name": {"s": "U3RhdGVmdWxQYXJ0aXRpb25lZENhbGwvb2NyX21vZGVsX3YxL2JpZGlyZWN0aW9uYWxfMS9iYWNrd2FyZF9sc3RtXzEvUGFydGl0aW9uZWRDYWxsL3doaWxl"}}}, {"name": "StatefulPartitionedCall/ocr_model_v1/bidirectional_1/backward_lstm_1/PartitionedCall/TensorArrayV2_1", "op": "TensorListReserve", "input": ["StatefulPartitionedCall/ocr_model_v1/bidirectional_1/backward_lstm_1/PartitionedCall/TensorArrayV2_1/element_shape", "StatefulPartitionedCall/ocr_model_v1/bidirectional_1/backward_lstm_1/PartitionedCall/strided_slice"], "attr": {"element_dtype": {"type": "DT_FLOAT"}, "shape_type": {"type": "DT_INT32"}}, "experimentalType": {"typeId": "TFT_PRODUCT", "args": [{"typeId": "TFT_ARRAY", "args": [{"typeId": "TFT_TENSOR", "args": [{"typeId": "TFT_FLOAT"}]}]}]}}, {"name": "StatefulPartitionedCall/ocr_model_v1/bidirectional_1/backward_lstm_1/PartitionedCall/while/enter/_301", "op": "Enter", "input": ["StatefulPartitionedCall/ocr_model_v1/bidirectional_1/backward_lstm_1/PartitionedCall/strided_slice"], "attr": {"T": {"type": "DT_INT32"}, "frame_name": {"s": "U3RhdGVmdWxQYXJ0aXRpb25lZENhbGwvb2NyX21vZGVsX3YxL2JpZGlyZWN0aW9uYWxfMS9iYWNrd2FyZF9sc3RtXzEvUGFydGl0aW9uZWRDYWxsL3doaWxl"}, "is_constant": {"b": false}, "parallel_iterations": {"i": "32"}}}, {"name": "StatefulPartitionedCall/ocr_model_v1/bidirectional/forward_lstm/PartitionedCall/while/body/_114/while/add_1", "op": "AddV2", "input": ["StatefulPartitionedCall/ocr_model_v1/bidirectional/forward_lstm/PartitionedCall/while/body/_114/while/mul", "StatefulPartitionedCall/ocr_model_v1/bidirectional/forward_lstm/PartitionedCall/while/body/_114/while/mul_1"], "attr": {"T": {"type": "DT_FLOAT"}}}, {"name": "StatefulPartitionedCall/ocr_model_v1/bidirectional/backward_lstm/PartitionedCall/while/body/_174/while/add_1", "op": "AddV2", "input": ["StatefulPartitionedCall/ocr_model_v1/bidirectional/backward_lstm/PartitionedCall/while/body/_174/while/mul", "StatefulPartitionedCall/ocr_model_v1/bidirectional/backward_lstm/PartitionedCall/while/body/_174/while/mul_1"], "attr": {"T": {"type": "DT_FLOAT"}}}, {"name": "StatefulPartitionedCall/ocr_model_v1/bidirectional_1/forward_lstm_1/PartitionedCall/while/enter/_240", "op": "Enter", "input": ["StatefulPartitionedCall/ocr_model_v1/bidirectional_1/forward_lstm_1/zeros_1"], "attr": {"T": {"type": "DT_FLOAT"}, "frame_name": {"s": "U3RhdGVmdWxQYXJ0aXRpb25lZENhbGwvb2NyX21vZGVsX3YxL2JpZGlyZWN0aW9uYWxfMS9mb3J3YXJkX2xzdG1fMS9QYXJ0aXRpb25lZENhbGwvd2hpbGU="}, "parallel_iterations": {"i": "32"}, "is_constant": {"b": false}}}, {"name": "StatefulPartitionedCall/ocr_model_v1/bidirectional_1/forward_lstm_1/PartitionedCall/while/enter/_239", "op": "Enter", "input": ["StatefulPartitionedCall/ocr_model_v1/bidirectional_1/forward_lstm_1/zeros"], "attr": {"is_constant": {"b": false}, "parallel_iterations": {"i": "32"}, "frame_name": {"s": "U3RhdGVmdWxQYXJ0aXRpb25lZENhbGwvb2NyX21vZGVsX3YxL2JpZGlyZWN0aW9uYWxfMS9mb3J3YXJkX2xzdG1fMS9QYXJ0aXRpb25lZENhbGwvd2hpbGU="}, "T": {"type": "DT_FLOAT"}}}, {"name": "StatefulPartitionedCall/ocr_model_v1/bidirectional_1/forward_lstm_1/PartitionedCall/while/enter/_238", "op": "Enter", "input": ["StatefulPartitionedCall/ocr_model_v1/bidirectional_1/forward_lstm_1/PartitionedCall/TensorArrayV2_1"], "attr": {"parallel_iterations": {"i": "32"}, "is_constant": {"b": false}, "frame_name": {"s": "U3RhdGVmdWxQYXJ0aXRpb25lZENhbGwvb2NyX21vZGVsX3YxL2JpZGlyZWN0aW9uYWxfMS9mb3J3YXJkX2xzdG1fMS9QYXJ0aXRpb25lZENhbGwvd2hpbGU="}, "T": {"type": "DT_VARIANT"}}}, {"name": "StatefulPartitionedCall/ocr_model_v1/bidirectional_1/forward_lstm_1/PartitionedCall/while/merge/_252", "op": "Merge", "input": ["StatefulPartitionedCall/ocr_model_v1/bidirectional_1/forward_lstm_1/PartitionedCall/while/enter/_241", "StatefulPartitionedCall/ocr_model_v1/bidirectional_1/forward_lstm_1/PartitionedCall/while/next_iteration/_288"], "attr": {"T": {"type": "DT_INT32"}, "N": {"i": "2"}}}, {"name": "StatefulPartitionedCall/ocr_model_v1/bidirectional_1/backward_lstm_1/PartitionedCall/while/enter/_300", "op": "Enter", "input": ["StatefulPartitionedCall/ocr_model_v1/bidirectional_1/backward_lstm_1/zeros_1"], "attr": {"parallel_iterations": {"i": "32"}, "T": {"type": "DT_FLOAT"}, "frame_name": {"s": "U3RhdGVmdWxQYXJ0aXRpb25lZENhbGwvb2NyX21vZGVsX3YxL2JpZGlyZWN0aW9uYWxfMS9iYWNrd2FyZF9sc3RtXzEvUGFydGl0aW9uZWRDYWxsL3doaWxl"}, "is_constant": {"b": false}}}, {"name": "StatefulPartitionedCall/ocr_model_v1/bidirectional_1/backward_lstm_1/PartitionedCall/while/enter/_299", "op": "Enter", "input": ["StatefulPartitionedCall/ocr_model_v1/bidirectional_1/backward_lstm_1/zeros"], "attr": {"parallel_iterations": {"i": "32"}, "T": {"type": "DT_FLOAT"}, "frame_name": {"s": "U3RhdGVmdWxQYXJ0aXRpb25lZENhbGwvb2NyX21vZGVsX3YxL2JpZGlyZWN0aW9uYWxfMS9iYWNrd2FyZF9sc3RtXzEvUGFydGl0aW9uZWRDYWxsL3doaWxl"}, "is_constant": {"b": false}}}, {"name": "StatefulPartitionedCall/ocr_model_v1/bidirectional_1/backward_lstm_1/PartitionedCall/while/merge/_313", "op": "Merge", "input": ["StatefulPartitionedCall/ocr_model_v1/bidirectional_1/backward_lstm_1/PartitionedCall/while/enter/_302", "StatefulPartitionedCall/ocr_model_v1/bidirectional_1/backward_lstm_1/PartitionedCall/while/next_iteration/_349"], "attr": {"N": {"i": "2"}, "T": {"type": "DT_VARIANT"}}}, {"name": "StatefulPartitionedCall/ocr_model_v1/bidirectional_1/backward_lstm_1/PartitionedCall/while/enter/_298", "op": "Enter", "input": ["StatefulPartitionedCall/ocr_model_v1/bidirectional_1/backward_lstm_1/PartitionedCall/TensorArrayV2_1"], "attr": {"parallel_iterations": {"i": "32"}, "frame_name": {"s": "U3RhdGVmdWxQYXJ0aXRpb25lZENhbGwvb2NyX21vZGVsX3YxL2JpZGlyZWN0aW9uYWxfMS9iYWNrd2FyZF9sc3RtXzEvUGFydGl0aW9uZWRDYWxsL3doaWxl"}, "is_constant": {"b": false}, "T": {"type": "DT_VARIANT"}}}, {"name": "StatefulPartitionedCall/ocr_model_v1/bidirectional_1/backward_lstm_1/PartitionedCall/while/merge/_312", "op": "Merge", "input": ["StatefulPartitionedCall/ocr_model_v1/bidirectional_1/backward_lstm_1/PartitionedCall/while/enter/_301", "StatefulPartitionedCall/ocr_model_v1/bidirectional_1/backward_lstm_1/PartitionedCall/while/next_iteration/_348"], "attr": {"N": {"i": "2"}, "T": {"type": "DT_INT32"}}}, {"name": "StatefulPartitionedCall/ocr_model_v1/bidirectional/forward_lstm/PartitionedCall/while/body/_114/while/Tanh_1", "op": "Tanh", "input": ["StatefulPartitionedCall/ocr_model_v1/bidirectional/forward_lstm/PartitionedCall/while/body/_114/while/add_1"], "attr": {"T": {"type": "DT_FLOAT"}}}, {"name": "StatefulPartitionedCall/ocr_model_v1/bidirectional/forward_lstm/PartitionedCall/while/next_iteration/_167", "op": "NextIteration", "input": ["StatefulPartitionedCall/ocr_model_v1/bidirectional/forward_lstm/PartitionedCall/while/body/_114/while/add_1", "^StatefulPartitionedCall/ocr_model_v1/bidirectional/forward_lstm/PartitionedCall/while/loop_body_control/_149"], "attr": {"T": {"type": "DT_FLOAT"}}}, {"name": "StatefulPartitionedCall/ocr_model_v1/bidirectional/backward_lstm/PartitionedCall/while/body/_174/while/Tanh_1", "op": "Tanh", "input": ["StatefulPartitionedCall/ocr_model_v1/bidirectional/backward_lstm/PartitionedCall/while/body/_174/while/add_1"], "attr": {"T": {"type": "DT_FLOAT"}}}, {"name": "StatefulPartitionedCall/ocr_model_v1/bidirectional/backward_lstm/PartitionedCall/while/next_iteration/_227", "op": "NextIteration", "input": ["StatefulPartitionedCall/ocr_model_v1/bidirectional/backward_lstm/PartitionedCall/while/body/_174/while/add_1", "^StatefulPartitionedCall/ocr_model_v1/bidirectional/backward_lstm/PartitionedCall/while/loop_body_control/_209"], "attr": {"T": {"type": "DT_FLOAT"}}}, {"name": "StatefulPartitionedCall/ocr_model_v1/bidirectional_1/forward_lstm_1/PartitionedCall/while/merge/_251", "op": "Merge", "input": ["StatefulPartitionedCall/ocr_model_v1/bidirectional_1/forward_lstm_1/PartitionedCall/while/enter/_240", "StatefulPartitionedCall/ocr_model_v1/bidirectional_1/forward_lstm_1/PartitionedCall/while/next_iteration/_287"], "attr": {"T": {"type": "DT_FLOAT"}, "N": {"i": "2"}}}, {"name": "StatefulPartitionedCall/ocr_model_v1/bidirectional_1/forward_lstm_1/PartitionedCall/while/merge/_250", "op": "Merge", "input": ["StatefulPartitionedCall/ocr_model_v1/bidirectional_1/forward_lstm_1/PartitionedCall/while/enter/_239", "StatefulPartitionedCall/ocr_model_v1/bidirectional_1/forward_lstm_1/PartitionedCall/while/next_iteration/_286"], "attr": {"N": {"i": "2"}, "T": {"type": "DT_FLOAT"}}}, {"name": "StatefulPartitionedCall/ocr_model_v1/bidirectional_1/forward_lstm_1/PartitionedCall/while/merge/_249", "op": "Merge", "input": ["StatefulPartitionedCall/ocr_model_v1/bidirectional_1/forward_lstm_1/PartitionedCall/while/enter/_238", "StatefulPartitionedCall/ocr_model_v1/bidirectional_1/forward_lstm_1/PartitionedCall/while/next_iteration/_285"], "attr": {"N": {"i": "2"}, "T": {"type": "DT_VARIANT"}}}, {"name": "StatefulPartitionedCall/ocr_model_v1/bidirectional_1/forward_lstm_1/PartitionedCall/while/cond/_233/while/Less", "op": "Less", "input": ["StatefulPartitionedCall/ocr_model_v1/bidirectional_1/forward_lstm_1/PartitionedCall/while/merge/_248", "StatefulPartitionedCall/ocr_model_v1/bidirectional_1/forward_lstm_1/PartitionedCall/while/merge/_252", "^StatefulPartitionedCall/ocr_model_v1/bidirectional_1/forward_lstm_1/PartitionedCall/while/merge/_246"], "attr": {"T": {"type": "DT_INT32"}}}, {"name": "StatefulPartitionedCall/ocr_model_v1/bidirectional_1/backward_lstm_1/PartitionedCall/while/merge/_311", "op": "Merge", "input": ["StatefulPartitionedCall/ocr_model_v1/bidirectional_1/backward_lstm_1/PartitionedCall/while/enter/_300", "StatefulPartitionedCall/ocr_model_v1/bidirectional_1/backward_lstm_1/PartitionedCall/while/next_iteration/_347"], "attr": {"T": {"type": "DT_FLOAT"}, "N": {"i": "2"}}}, {"name": "StatefulPartitionedCall/ocr_model_v1/bidirectional_1/backward_lstm_1/PartitionedCall/while/merge/_310", "op": "Merge", "input": ["StatefulPartitionedCall/ocr_model_v1/bidirectional_1/backward_lstm_1/PartitionedCall/while/enter/_299", "StatefulPartitionedCall/ocr_model_v1/bidirectional_1/backward_lstm_1/PartitionedCall/while/next_iteration/_346"], "attr": {"N": {"i": "2"}, "T": {"type": "DT_FLOAT"}}}, {"name": "StatefulPartitionedCall/ocr_model_v1/bidirectional_1/backward_lstm_1/PartitionedCall/while/merge/_309", "op": "Merge", "input": ["StatefulPartitionedCall/ocr_model_v1/bidirectional_1/backward_lstm_1/PartitionedCall/while/enter/_298", "StatefulPartitionedCall/ocr_model_v1/bidirectional_1/backward_lstm_1/PartitionedCall/while/next_iteration/_345"], "attr": {"N": {"i": "2"}, "T": {"type": "DT_VARIANT"}}}, {"name": "StatefulPartitionedCall/ocr_model_v1/bidirectional_1/backward_lstm_1/PartitionedCall/while/cond/_293/while/Less", "op": "Less", "input": ["StatefulPartitionedCall/ocr_model_v1/bidirectional_1/backward_lstm_1/PartitionedCall/while/merge/_308", "StatefulPartitionedCall/ocr_model_v1/bidirectional_1/backward_lstm_1/PartitionedCall/while/merge/_312", "^StatefulPartitionedCall/ocr_model_v1/bidirectional_1/backward_lstm_1/PartitionedCall/while/merge/_306"], "attr": {"T": {"type": "DT_INT32"}}}, {"name": "StatefulPartitionedCall/ocr_model_v1/bidirectional/forward_lstm/PartitionedCall/while/body/_114/while/mul_2", "op": "Mul", "input": ["StatefulPartitionedCall/ocr_model_v1/bidirectional/forward_lstm/PartitionedCall/while/body/_114/while/Sigmoid_2", "StatefulPartitionedCall/ocr_model_v1/bidirectional/forward_lstm/PartitionedCall/while/body/_114/while/Tanh_1"], "attr": {"T": {"type": "DT_FLOAT"}}}, {"name": "StatefulPartitionedCall/ocr_model_v1/bidirectional/backward_lstm/PartitionedCall/while/body/_174/while/mul_2", "op": "Mul", "input": ["StatefulPartitionedCall/ocr_model_v1/bidirectional/backward_lstm/PartitionedCall/while/body/_174/while/Sigmoid_2", "StatefulPartitionedCall/ocr_model_v1/bidirectional/backward_lstm/PartitionedCall/while/body/_174/while/Tanh_1"], "attr": {"T": {"type": "DT_FLOAT"}}}, {"name": "StatefulPartitionedCall/ocr_model_v1/bidirectional_1/forward_lstm_1/PartitionedCall/while/LoopCond/_257", "op": "LoopCond", "input": ["StatefulPartitionedCall/ocr_model_v1/bidirectional_1/forward_lstm_1/PartitionedCall/while/cond/_233/while/Less"]}, {"name": "StatefulPartitionedCall/ocr_model_v1/bidirectional_1/backward_lstm_1/PartitionedCall/while/LoopCond/_317", "op": "LoopCond", "input": ["StatefulPartitionedCall/ocr_model_v1/bidirectional_1/backward_lstm_1/PartitionedCall/while/cond/_293/while/Less"]}, {"name": "StatefulPartitionedCall/ocr_model_v1/bidirectional/forward_lstm/PartitionedCall/while/next_iteration/_166", "op": "NextIteration", "input": ["StatefulPartitionedCall/ocr_model_v1/bidirectional/forward_lstm/PartitionedCall/while/body/_114/while/mul_2", "^StatefulPartitionedCall/ocr_model_v1/bidirectional/forward_lstm/PartitionedCall/while/loop_body_control/_149"], "attr": {"T": {"type": "DT_FLOAT"}}}, {"name": "StatefulPartitionedCall/ocr_model_v1/bidirectional/forward_lstm/PartitionedCall/while/body/_114/while/TensorArrayV2Write/TensorListSetItem", "op": "TensorListSetItem", "input": ["StatefulPartitionedCall/ocr_model_v1/bidirectional/forward_lstm/PartitionedCall/while/StatefulPartitionedCall/ocr_model_v1/bidirectional/forward_lstm/PartitionedCall/TensorArrayV2_1_switch/_141:1", "Func/StatefulPartitionedCall/ocr_model_v1/bidirectional/forward_lstm/PartitionedCall/while/body/_114/input/_397", "StatefulPartitionedCall/ocr_model_v1/bidirectional/forward_lstm/PartitionedCall/while/body/_114/while/mul_2"], "attr": {"element_dtype": {"type": "DT_FLOAT"}}, "experimentalType": {"typeId": "TFT_PRODUCT", "args": [{"typeId": "TFT_ARRAY", "args": [{"typeId": "TFT_TENSOR", "args": [{"typeId": "TFT_FLOAT"}]}]}]}}, {"name": "StatefulPartitionedCall/ocr_model_v1/bidirectional/backward_lstm/PartitionedCall/while/next_iteration/_226", "op": "NextIteration", "input": ["StatefulPartitionedCall/ocr_model_v1/bidirectional/backward_lstm/PartitionedCall/while/body/_174/while/mul_2", "^StatefulPartitionedCall/ocr_model_v1/bidirectional/backward_lstm/PartitionedCall/while/loop_body_control/_209"], "attr": {"T": {"type": "DT_FLOAT"}}}, {"name": "StatefulPartitionedCall/ocr_model_v1/bidirectional/backward_lstm/PartitionedCall/while/body/_174/while/TensorArrayV2Write/TensorListSetItem", "op": "TensorListSetItem", "input": ["StatefulPartitionedCall/ocr_model_v1/bidirectional/backward_lstm/PartitionedCall/while/StatefulPartitionedCall/ocr_model_v1/bidirectional/backward_lstm/PartitionedCall/TensorArrayV2_1_switch/_201:1", "Func/StatefulPartitionedCall/ocr_model_v1/bidirectional/backward_lstm/PartitionedCall/while/body/_174/input/_434", "StatefulPartitionedCall/ocr_model_v1/bidirectional/backward_lstm/PartitionedCall/while/body/_174/while/mul_2"], "attr": {"element_dtype": {"type": "DT_FLOAT"}}, "experimentalType": {"typeId": "TFT_PRODUCT", "args": [{"typeId": "TFT_ARRAY", "args": [{"typeId": "TFT_TENSOR", "args": [{"typeId": "TFT_FLOAT"}]}]}]}}, {"name": "StatefulPartitionedCall/ocr_model_v1/bidirectional_1/forward_lstm_1/PartitionedCall/while/Func/StatefulPartitionedCall/ocr_model_v1/bidirectional_1/forward_lstm_1/PartitionedCall/input/_48_switch/_263", "op": "Switch", "input": ["StatefulPartitionedCall/ocr_model_v1/bidirectional_1/forward_lstm_1/PartitionedCall/while/merge/_251", "StatefulPartitionedCall/ocr_model_v1/bidirectional_1/forward_lstm_1/PartitionedCall/while/LoopCond/_257"], "attr": {"T": {"type": "DT_FLOAT"}}}, {"name": "StatefulPartitionedCall/ocr_model_v1/bidirectional_1/forward_lstm_1/PartitionedCall/while/StatefulPartitionedCall/ocr_model_v1/bidirectional_1/forward_lstm_1/PartitionedCall/TensorArrayUnstack/TensorListFromTensor_switch/_265", "op": "Switch", "input": ["StatefulPartitionedCall/ocr_model_v1/bidirectional_1/forward_lstm_1/PartitionedCall/while/merge/_253", "StatefulPartitionedCall/ocr_model_v1/bidirectional_1/forward_lstm_1/PartitionedCall/while/LoopCond/_257"], "attr": {"T": {"type": "DT_VARIANT"}}}, {"name": "StatefulPartitionedCall/ocr_model_v1/bidirectional_1/forward_lstm_1/PartitionedCall/while/Func/StatefulPartitionedCall/ocr_model_v1/bidirectional_1/forward_lstm_1/PartitionedCall/input/_49_switch/_266", "op": "Switch", "input": ["StatefulPartitionedCall/ocr_model_v1/bidirectional_1/forward_lstm_1/PartitionedCall/while/merge/_254", "StatefulPartitionedCall/ocr_model_v1/bidirectional_1/forward_lstm_1/PartitionedCall/while/LoopCond/_257"], "attr": {"T": {"type": "DT_FLOAT"}}}, {"name": "StatefulPartitionedCall/ocr_model_v1/bidirectional_1/forward_lstm_1/PartitionedCall/while/Func/StatefulPartitionedCall/ocr_model_v1/bidirectional_1/forward_lstm_1/PartitionedCall/input/_47_switch/_262", "op": "Switch", "input": ["StatefulPartitionedCall/ocr_model_v1/bidirectional_1/forward_lstm_1/PartitionedCall/while/merge/_250", "StatefulPartitionedCall/ocr_model_v1/bidirectional_1/forward_lstm_1/PartitionedCall/while/LoopCond/_257"], "attr": {"T": {"type": "DT_FLOAT"}}}, {"name": "StatefulPartitionedCall/ocr_model_v1/bidirectional_1/forward_lstm_1/PartitionedCall/while/Func/StatefulPartitionedCall/ocr_model_v1/bidirectional_1/forward_lstm_1/PartitionedCall/input/_50_switch/_267", "op": "Switch", "input": ["StatefulPartitionedCall/ocr_model_v1/bidirectional_1/forward_lstm_1/PartitionedCall/while/merge/_255", "StatefulPartitionedCall/ocr_model_v1/bidirectional_1/forward_lstm_1/PartitionedCall/while/LoopCond/_257"], "attr": {"T": {"type": "DT_FLOAT"}}}, {"name": "StatefulPartitionedCall/ocr_model_v1/bidirectional_1/forward_lstm_1/PartitionedCall/while/Func/StatefulPartitionedCall/ocr_model_v1/bidirectional_1/forward_lstm_1/PartitionedCall/input/_51_switch/_268", "op": "Switch", "input": ["StatefulPartitionedCall/ocr_model_v1/bidirectional_1/forward_lstm_1/PartitionedCall/while/merge/_256", "StatefulPartitionedCall/ocr_model_v1/bidirectional_1/forward_lstm_1/PartitionedCall/while/LoopCond/_257"], "attr": {"T": {"type": "DT_FLOAT"}}}, {"name": "StatefulPartitionedCall/ocr_model_v1/bidirectional_1/forward_lstm_1/PartitionedCall/while/StatefulPartitionedCall/ocr_model_v1/bidirectional_1/forward_lstm_1/PartitionedCall/time_switch/_260", "op": "Switch", "input": ["StatefulPartitionedCall/ocr_model_v1/bidirectional_1/forward_lstm_1/PartitionedCall/while/merge/_248", "StatefulPartitionedCall/ocr_model_v1/bidirectional_1/forward_lstm_1/PartitionedCall/while/LoopCond/_257"], "attr": {"T": {"type": "DT_INT32"}}}, {"name": "StatefulPartitionedCall/ocr_model_v1/bidirectional_1/forward_lstm_1/PartitionedCall/while/StatefulPartitionedCall/ocr_model_v1/bidirectional_1/forward_lstm_1/PartitionedCall/while/loop_counter_switch/_258", "op": "Switch", "input": ["StatefulPartitionedCall/ocr_model_v1/bidirectional_1/forward_lstm_1/PartitionedCall/while/merge/_246", "StatefulPartitionedCall/ocr_model_v1/bidirectional_1/forward_lstm_1/PartitionedCall/while/LoopCond/_257"], "attr": {"T": {"type": "DT_INT32"}}}, {"name": "StatefulPartitionedCall/ocr_model_v1/bidirectional_1/forward_lstm_1/PartitionedCall/while/StatefulPartitionedCall/ocr_model_v1/bidirectional_1/forward_lstm_1/PartitionedCall/TensorArrayV2_1_switch/_261", "op": "Switch", "input": ["StatefulPartitionedCall/ocr_model_v1/bidirectional_1/forward_lstm_1/PartitionedCall/while/merge/_249", "StatefulPartitionedCall/ocr_model_v1/bidirectional_1/forward_lstm_1/PartitionedCall/while/LoopCond/_257"], "attr": {"T": {"type": "DT_VARIANT"}}}, {"name": "StatefulPartitionedCall/ocr_model_v1/bidirectional_1/forward_lstm_1/PartitionedCall/while/StatefulPartitionedCall/ocr_model_v1/bidirectional_1/forward_lstm_1/PartitionedCall/strided_slice_switch/_264", "op": "Switch", "input": ["StatefulPartitionedCall/ocr_model_v1/bidirectional_1/forward_lstm_1/PartitionedCall/while/merge/_252", "StatefulPartitionedCall/ocr_model_v1/bidirectional_1/forward_lstm_1/PartitionedCall/while/LoopCond/_257"], "attr": {"T": {"type": "DT_INT32"}}}, {"name": "StatefulPartitionedCall/ocr_model_v1/bidirectional_1/backward_lstm_1/PartitionedCall/while/Func/StatefulPartitionedCall/ocr_model_v1/bidirectional_1/backward_lstm_1/PartitionedCall/input/_59_switch/_323", "op": "Switch", "input": ["StatefulPartitionedCall/ocr_model_v1/bidirectional_1/backward_lstm_1/PartitionedCall/while/merge/_311", "StatefulPartitionedCall/ocr_model_v1/bidirectional_1/backward_lstm_1/PartitionedCall/while/LoopCond/_317"], "attr": {"T": {"type": "DT_FLOAT"}}}, {"name": "StatefulPartitionedCall/ocr_model_v1/bidirectional_1/backward_lstm_1/PartitionedCall/while/StatefulPartitionedCall/ocr_model_v1/bidirectional_1/backward_lstm_1/PartitionedCall/TensorArrayUnstack/TensorListFromTensor_switch/_325", "op": "Switch", "input": ["StatefulPartitionedCall/ocr_model_v1/bidirectional_1/backward_lstm_1/PartitionedCall/while/merge/_313", "StatefulPartitionedCall/ocr_model_v1/bidirectional_1/backward_lstm_1/PartitionedCall/while/LoopCond/_317"], "attr": {"T": {"type": "DT_VARIANT"}}}, {"name": "StatefulPartitionedCall/ocr_model_v1/bidirectional_1/backward_lstm_1/PartitionedCall/while/Func/StatefulPartitionedCall/ocr_model_v1/bidirectional_1/backward_lstm_1/PartitionedCall/input/_60_switch/_326", "op": "Switch", "input": ["StatefulPartitionedCall/ocr_model_v1/bidirectional_1/backward_lstm_1/PartitionedCall/while/merge/_314", "StatefulPartitionedCall/ocr_model_v1/bidirectional_1/backward_lstm_1/PartitionedCall/while/LoopCond/_317"], "attr": {"T": {"type": "DT_FLOAT"}}}, {"name": "StatefulPartitionedCall/ocr_model_v1/bidirectional_1/backward_lstm_1/PartitionedCall/while/Func/StatefulPartitionedCall/ocr_model_v1/bidirectional_1/backward_lstm_1/PartitionedCall/input/_58_switch/_322", "op": "Switch", "input": ["StatefulPartitionedCall/ocr_model_v1/bidirectional_1/backward_lstm_1/PartitionedCall/while/merge/_310", "StatefulPartitionedCall/ocr_model_v1/bidirectional_1/backward_lstm_1/PartitionedCall/while/LoopCond/_317"], "attr": {"T": {"type": "DT_FLOAT"}}}, {"name": "StatefulPartitionedCall/ocr_model_v1/bidirectional_1/backward_lstm_1/PartitionedCall/while/Func/StatefulPartitionedCall/ocr_model_v1/bidirectional_1/backward_lstm_1/PartitionedCall/input/_61_switch/_327", "op": "Switch", "input": ["StatefulPartitionedCall/ocr_model_v1/bidirectional_1/backward_lstm_1/PartitionedCall/while/merge/_315", "StatefulPartitionedCall/ocr_model_v1/bidirectional_1/backward_lstm_1/PartitionedCall/while/LoopCond/_317"], "attr": {"T": {"type": "DT_FLOAT"}}}, {"name": "StatefulPartitionedCall/ocr_model_v1/bidirectional_1/backward_lstm_1/PartitionedCall/while/Func/StatefulPartitionedCall/ocr_model_v1/bidirectional_1/backward_lstm_1/PartitionedCall/input/_62_switch/_328", "op": "Switch", "input": ["StatefulPartitionedCall/ocr_model_v1/bidirectional_1/backward_lstm_1/PartitionedCall/while/merge/_316", "StatefulPartitionedCall/ocr_model_v1/bidirectional_1/backward_lstm_1/PartitionedCall/while/LoopCond/_317"], "attr": {"T": {"type": "DT_FLOAT"}}}, {"name": "StatefulPartitionedCall/ocr_model_v1/bidirectional_1/backward_lstm_1/PartitionedCall/while/StatefulPartitionedCall/ocr_model_v1/bidirectional_1/backward_lstm_1/PartitionedCall/time_switch/_320", "op": "Switch", "input": ["StatefulPartitionedCall/ocr_model_v1/bidirectional_1/backward_lstm_1/PartitionedCall/while/merge/_308", "StatefulPartitionedCall/ocr_model_v1/bidirectional_1/backward_lstm_1/PartitionedCall/while/LoopCond/_317"], "attr": {"T": {"type": "DT_INT32"}}}, {"name": "StatefulPartitionedCall/ocr_model_v1/bidirectional_1/backward_lstm_1/PartitionedCall/while/StatefulPartitionedCall/ocr_model_v1/bidirectional_1/backward_lstm_1/PartitionedCall/while/loop_counter_switch/_318", "op": "Switch", "input": ["StatefulPartitionedCall/ocr_model_v1/bidirectional_1/backward_lstm_1/PartitionedCall/while/merge/_306", "StatefulPartitionedCall/ocr_model_v1/bidirectional_1/backward_lstm_1/PartitionedCall/while/LoopCond/_317"], "attr": {"T": {"type": "DT_INT32"}}}, {"name": "StatefulPartitionedCall/ocr_model_v1/bidirectional_1/backward_lstm_1/PartitionedCall/while/StatefulPartitionedCall/ocr_model_v1/bidirectional_1/backward_lstm_1/PartitionedCall/TensorArrayV2_1_switch/_321", "op": "Switch", "input": ["StatefulPartitionedCall/ocr_model_v1/bidirectional_1/backward_lstm_1/PartitionedCall/while/merge/_309", "StatefulPartitionedCall/ocr_model_v1/bidirectional_1/backward_lstm_1/PartitionedCall/while/LoopCond/_317"], "attr": {"T": {"type": "DT_VARIANT"}}}, {"name": "StatefulPartitionedCall/ocr_model_v1/bidirectional_1/backward_lstm_1/PartitionedCall/while/StatefulPartitionedCall/ocr_model_v1/bidirectional_1/backward_lstm_1/PartitionedCall/strided_slice_switch/_324", "op": "Switch", "input": ["StatefulPartitionedCall/ocr_model_v1/bidirectional_1/backward_lstm_1/PartitionedCall/while/merge/_312", "StatefulPartitionedCall/ocr_model_v1/bidirectional_1/backward_lstm_1/PartitionedCall/while/LoopCond/_317"], "attr": {"T": {"type": "DT_INT32"}}}, {"name": "StatefulPartitionedCall/ocr_model_v1/bidirectional/forward_lstm/PartitionedCall/while/next_iteration/_165", "op": "NextIteration", "input": ["StatefulPartitionedCall/ocr_model_v1/bidirectional/forward_lstm/PartitionedCall/while/body/_114/while/TensorArrayV2Write/TensorListSetItem", "^StatefulPartitionedCall/ocr_model_v1/bidirectional/forward_lstm/PartitionedCall/while/loop_body_control/_149"], "attr": {"T": {"type": "DT_VARIANT"}}}, {"name": "StatefulPartitionedCall/ocr_model_v1/bidirectional/backward_lstm/PartitionedCall/while/next_iteration/_225", "op": "NextIteration", "input": ["StatefulPartitionedCall/ocr_model_v1/bidirectional/backward_lstm/PartitionedCall/while/body/_174/while/TensorArrayV2Write/TensorListSetItem", "^StatefulPartitionedCall/ocr_model_v1/bidirectional/backward_lstm/PartitionedCall/while/loop_body_control/_209"], "attr": {"T": {"type": "DT_VARIANT"}}}, {"name": "StatefulPartitionedCall/ocr_model_v1/bidirectional_1/forward_lstm_1/PartitionedCall/while/loop_body_control/_269", "op": "Identity", "input": ["StatefulPartitionedCall/ocr_model_v1/bidirectional_1/forward_lstm_1/PartitionedCall/while/StatefulPartitionedCall/ocr_model_v1/bidirectional_1/forward_lstm_1/PartitionedCall/while/loop_counter_switch/_258:1"], "attr": {"T": {"type": "DT_INT32"}}}, {"name": "StatefulPartitionedCall/ocr_model_v1/bidirectional_1/forward_lstm_1/PartitionedCall/while/exit/_273", "op": "Exit", "input": ["StatefulPartitionedCall/ocr_model_v1/bidirectional_1/forward_lstm_1/PartitionedCall/while/StatefulPartitionedCall/ocr_model_v1/bidirectional_1/forward_lstm_1/PartitionedCall/TensorArrayV2_1_switch/_261"], "attr": {"T": {"type": "DT_VARIANT"}}}, {"name": "StatefulPartitionedCall/ocr_model_v1/bidirectional_1/backward_lstm_1/PartitionedCall/while/loop_body_control/_329", "op": "Identity", "input": ["StatefulPartitionedCall/ocr_model_v1/bidirectional_1/backward_lstm_1/PartitionedCall/while/StatefulPartitionedCall/ocr_model_v1/bidirectional_1/backward_lstm_1/PartitionedCall/while/loop_counter_switch/_318:1"], "attr": {"T": {"type": "DT_INT32"}}}, {"name": "StatefulPartitionedCall/ocr_model_v1/bidirectional_1/backward_lstm_1/PartitionedCall/while/exit/_333", "op": "Exit", "input": ["StatefulPartitionedCall/ocr_model_v1/bidirectional_1/backward_lstm_1/Partitione…
, "num_elements": {"i": "-1"}}}, {"name": "StatefulPartitionedCall/ocr_model_v1/bidirectional_1/backward_lstm_1/PartitionedCall/while/body/_294/while/split/split_dim", "op": "Const", "input": ["^StatefulPartitionedCall/ocr_model_v1/bidirectional_1/backward_lstm_1/PartitionedCall/while/loop_body_control/_329"], "attr": {"dtype": {"type": "DT_INT32"}, "value": {"tensor": {"dtype": "DT_INT32", "tensorShape": {}}}}}, {"name": "StatefulPartitionedCall/ocr_model_v1/bidirectional_1/backward_lstm_1/PartitionedCall/while/next_iteration/_349", "op": "NextIteration", "input": ["StatefulPartitionedCall/ocr_model_v1/bidirectional_1/backward_lstm_1/PartitionedCall/while/StatefulPartitionedCall/ocr_model_v1/bidirectional_1/backward_lstm_1/PartitionedCall/TensorArrayUnstack/TensorListFromTensor_switch/_325:1", "^StatefulPartitionedCall/ocr_model_v1/bidirectional_1/backward_lstm_1/PartitionedCall/while/loop_body_control/_329"], "attr": {"T": {"type": "DT_VARIANT"}}}, {"name": "StatefulPartitionedCall/ocr_model_v1/bidirectional_1/backward_lstm_1/PartitionedCall/while/body/_294/while/TensorArrayV2Read/TensorListGetItem/element_shape", "op": "Const", "input": ["^StatefulPartitionedCall/ocr_model_v1/bidirectional_1/backward_lstm_1/PartitionedCall/while/loop_body_control/_329"], "attr": {"value": {"tensor": {"dtype": "DT_INT32", "tensorShape": {"dim": [{"size": "2"}]}}}, "dtype": {"type": "DT_INT32"}}}, {"name": "StatefulPartitionedCall/ocr_model_v1/bidirectional_1/backward_lstm_1/PartitionedCall/while/next_iteration/_350", "op": "NextIteration", "input": ["StatefulPartitionedCall/ocr_model_v1/bidirectional_1/backward_lstm_1/PartitionedCall/while/Func/StatefulPartitionedCall/ocr_model_v1/bidirectional_1/backward_lstm_1/PartitionedCall/input/_60_switch/_326:1", "^StatefulPartitionedCall/ocr_model_v1/bidirectional_1/backward_lstm_1/PartitionedCall/while/loop_body_control/_329"], "attr": {"T": {"type": "DT_FLOAT"}}}, {"name": "StatefulPartitionedCall/ocr_model_v1/bidirectional_1/backward_lstm_1/PartitionedCall/while/next_iteration/_351", "op": "NextIteration", "input": ["StatefulPartitionedCall/ocr_model_v1/bidirectional_1/backward_lstm_1/PartitionedCall/while/Func/StatefulPartitionedCall/ocr_model_v1/bidirectional_1/backward_lstm_1/PartitionedCall/input/_61_switch/_327:1", "^StatefulPartitionedCall/ocr_model_v1/bidirectional_1/backward_lstm_1/PartitionedCall/while/loop_body_control/_329"], "attr": {"T": {"type": "DT_FLOAT"}}}, {"name": "StatefulPartitionedCall/ocr_model_v1/bidirectional_1/backward_lstm_1/PartitionedCall/while/body/_294/while/MatMul_1", "op": "MatMul", "input": ["StatefulPartitionedCall/ocr_model_v1/bidirectional_1/backward_lstm_1/PartitionedCall/while/Func/StatefulPartitionedCall/ocr_model_v1/bidirectional_1/backward_lstm_1/PartitionedCall/input/_58_switch/_322:1", "StatefulPartitionedCall/ocr_model_v1/bidirectional_1/backward_lstm_1/PartitionedCall/while/Func/StatefulPartitionedCall/ocr_model_v1/bidirectional_1/backward_lstm_1/PartitionedCall/input/_61_switch/_327:1", "^StatefulPartitionedCall/ocr_model_v1/bidirectional_1/backward_lstm_1/PartitionedCall/while/loop_body_control/_329"], "device": "/device:CPU:0", "attr": {"transpose_a": {"b": false}, "transpose_b": {"b": false}, "T": {"type": "DT_FLOAT"}}}, {"name": "StatefulPartitionedCall/ocr_model_v1/bidirectional_1/backward_lstm_1/PartitionedCall/while/next_iteration/_352", "op": "NextIteration", "input": ["StatefulPartitionedCall/ocr_model_v1/bidirectional_1/backward_lstm_1/PartitionedCall/while/Func/StatefulPartitionedCall/ocr_model_v1/bidirectional_1/backward_lstm_1/PartitionedCall/input/_62_switch/_328:1", "^StatefulPartitionedCall/ocr_model_v1/bidirectional_1/backward_lstm_1/PartitionedCall/while/loop_body_control/_329"], "attr": {"T": {"type": "DT_FLOAT"}}}, {"name": "Func/StatefulPartitionedCall/ocr_model_v1/bidirectional_1/backward_lstm_1/PartitionedCall/while/body/_294/input/_508", "op": "Identity", "input": ["StatefulPartitionedCall/ocr_model_v1/bidirectional_1/backward_lstm_1/PartitionedCall/while/StatefulPartitionedCall/ocr_model_v1/bidirectional_1/backward_lstm_1/PartitionedCall/time_switch/_320:1", "^StatefulPartitionedCall/ocr_model_v1/bidirectional_1/backward_lstm_1/PartitionedCall/while/loop_body_control/_329"], "attr": {"T": {"type": "DT_INT32"}}}, {"name": "StatefulPartitionedCall/ocr_model_v1/bidirectional_1/backward_lstm_1/PartitionedCall/while/body/_294/while/add_2/y", "op": "Const", "input": ["^StatefulPartitionedCall/ocr_model_v1/bidirectional_1/backward_lstm_1/PartitionedCall/while/loop_body_control/_329"], "attr": {"value": {"tensor": {"dtype": "DT_INT32", "tensorShape": {}}}, "dtype": {"type": "DT_INT32"}}}, {"name": "StatefulPartitionedCall/ocr_model_v1/bidirectional_1/backward_lstm_1/PartitionedCall/while/body/_294/while/add_3/y", "op": "Const", "input": ["^StatefulPartitionedCall/ocr_model_v1/bidirectional_1/backward_lstm_1/PartitionedCall/while/loop_body_control/_329"], "attr": {"value": {"tensor": {"dtype": "DT_INT32", "tensorShape": {}}}, "dtype": {"type": "DT_INT32"}}}, {"name": "StatefulPartitionedCall/ocr_model_v1/bidirectional_1/backward_lstm_1/PartitionedCall/while/next_iteration/_348", "op": "NextIteration", "input": ["StatefulPartitionedCall/ocr_model_v1/bidirectional_1/backward_lstm_1/PartitionedCall/while/StatefulPartitionedCall/ocr_model_v1/bidirectional_1/backward_lstm_1/PartitionedCall/strided_slice_switch/_324:1", "^StatefulPartitionedCall/ocr_model_v1/bidirectional_1/backward_lstm_1/PartitionedCall/while/loop_body_control/_329"], "attr": {"T": {"type": "DT_INT32"}}}, {"name": "StatefulPartitionedCall/ocr_model_v1/bidirectional_1/backward_lstm_1/PartitionedCall/TensorArrayV2Stack/TensorListStack", "op": "TensorListStack", "input": ["StatefulPartitionedCall/ocr_model_v1/bidirectional_1/backward_lstm_1/PartitionedCall/while/exit/_333", "StatefulPartitionedCall/ocr_model_v1/bidirectional_1/backward_lstm_1/PartitionedCall/TensorArrayV2Stack/TensorListStack/element_shape"], "attr": {"num_elements": {"i": "-1"}, "element_dtype": {"type": "DT_FLOAT"}}}, {"name": "StatefulPartitionedCall/ocr_model_v1/bidirectional_1/forward_lstm_1/PartitionedCall/while/body/_234/while/TensorArrayV2Read/TensorListGetItem", "op": "TensorListGetItem", "input": ["StatefulPartitionedCall/ocr_model_v1/bidirectional_1/forward_lstm_1/PartitionedCall/while/StatefulPartitionedCall/ocr_model_v1/bidirectional_1/forward_lstm_1/PartitionedCall/TensorArrayUnstack/TensorListFromTensor_switch/_265:1", "Func/StatefulPartitionedCall/ocr_model_v1/bidirectional_1/forward_lstm_1/PartitionedCall/while/body/_234/input/_471", "StatefulPartitionedCall/ocr_model_v1/bidirectional_1/forward_lstm_1/PartitionedCall/while/body/_234/while/TensorArrayV2Read/TensorListGetItem/element_shape"], "attr": {"element_dtype": {"type": "DT_FLOAT"}}}, {"name": "StatefulPartitionedCall/ocr_model_v1/bidirectional_1/forward_lstm_1/PartitionedCall/while/body/_234/while/add_2", "op": "AddV2", "input": ["Func/StatefulPartitionedCall/ocr_model_v1/bidirectional_1/forward_lstm_1/PartitionedCall/while/body/_234/input/_471", "StatefulPartitionedCall/ocr_model_v1/bidirectional_1/forward_lstm_1/PartitionedCall/while/body/_234/while/add_2/y"], "attr": {"T": {"type": "DT_INT32"}}}, {"name": "StatefulPartitionedCall/ocr_model_v1/bidirectional_1/forward_lstm_1/PartitionedCall/while/body/_234/while/add_3", "op": "AddV2", "input": ["StatefulPartitionedCall/ocr_model_v1/bidirectional_1/forward_lstm_1/PartitionedCall/while/StatefulPartitionedCall/ocr_model_v1/bidirectional_1/forward_lstm_1/PartitionedCall/while/loop_counter_switch/_258:1", "StatefulPartitionedCall/ocr_model_v1/bidirectional_1/forward_lstm_1/PartitionedCall/while/body/_234/while/add_3/y"], "attr": {"T": {"type": "DT_INT32"}}}, {"name": "StatefulPartitionedCall/ocr_model_v1/bidirectional_1/forward_lstm_1/PartitionedCall/transpose_1", "op": "Transpose", "input": ["StatefulPartitionedCall/ocr_model_v1/bidirectional_1/forward_lstm_1/PartitionedCall/TensorArrayV2Stack/TensorListStack", "StatefulPartitionedCall/ocr_model_v1/bidirectional_1/forward_lstm_1/PartitionedCall/transpose_1/perm"], "attr": {"Tperm": {"type": "DT_INT32"}, "T": {"type": "DT_FLOAT"}}}, {"name": "StatefulPartitionedCall/ocr_model_v1/bidirectional_1/backward_lstm_1/PartitionedCall/while/body/_294/while/TensorArrayV2Read/TensorListGetItem", "op": "TensorListGetItem", "input": ["StatefulPartitionedCall/ocr_model_v1/bidirectional_1/backward_lstm_1/PartitionedCall/while/StatefulPartitionedCall/ocr_model_v1/bidirectional_1/backward_lstm_1/PartitionedCall/TensorArrayUnstack/TensorListFromTensor_switch/_325:1", "Func/StatefulPartitionedCall/ocr_model_v1/bidirectional_1/backward_lstm_1/PartitionedCall/while/body/_294/input/_508", "StatefulPartitionedCall/ocr_model_v1/bidirectional_1/backward_lstm_1/PartitionedCall/while/body/_294/while/TensorArrayV2Read/TensorListGetItem/element_shape"], "attr": {"element_dtype": {"type": "DT_FLOAT"}}}, {"name": "StatefulPartitionedCall/ocr_model_v1/bidirectional_1/backward_lstm_1/PartitionedCall/while/body/_294/while/add_2", "op": "AddV2", "input": ["Func/StatefulPartitionedCall/ocr_model_v1/bidirectional_1/backward_lstm_1/PartitionedCall/while/body/_294/input/_508", "StatefulPartitionedCall/ocr_model_v1/bidirectional_1/backward_lstm_1/PartitionedCall/while/body/_294/while/add_2/y"], "attr": {"T": {"type": "DT_INT32"}}}, {"name": "StatefulPartitionedCall/ocr_model_v1/bidirectional_1/backward_lstm_1/PartitionedCall/while/body/_294/while/add_3", "op": "AddV2", "input": ["StatefulPartitionedCall/ocr_model_v1/bidirectional_1/backward_lstm_1/PartitionedCall/while/StatefulPartitionedCall/ocr_model_v1/bidirectional_1/backward_lstm_1/PartitionedCall/while/loop_counter_switch/_318:1", "StatefulPartitionedCall/ocr_model_v1/bidirectional_1/backward_lstm_1/PartitionedCall/while/body/_294/while/add_3/y"], "attr": {"T": {"type": "DT_INT32"}}}, {"name": "StatefulPartitionedCall/ocr_model_v1/bidirectional_1/backward_lstm_1/PartitionedCall/transpose_1", "op": "Transpose", "input": ["StatefulPartitionedCall/ocr_model_v1/bidirectional_1/backward_lstm_1/PartitionedCall/TensorArrayV2Stack/TensorListStack", "StatefulPartitionedCall/ocr_model_v1/bidirectional_1/backward_lstm_1/PartitionedCall/transpose_1/perm"], "attr": {"T": {"type": "DT_FLOAT"}, "Tperm": {"type": "DT_INT32"}}}, {"name": "StatefulPartitionedCall/ocr_model_v1/bidirectional_1/forward_lstm_1/PartitionedCall/while/body/_234/while/MatMul", "op": "MatMul", "input": ["StatefulPartitionedCall/ocr_model_v1/bidirectional_1/forward_lstm_1/PartitionedCall/while/body/_234/while/TensorArrayV2Read/TensorListGetItem", "StatefulPartitionedCall/ocr_model_v1/bidirectional_1/forward_lstm_1/PartitionedCall/while/Func/StatefulPartitionedCall/ocr_model_v1/bidirectional_1/forward_lstm_1/PartitionedCall/input/_49_switch/_266:1"], "device": "/device:CPU:0", "attr": {"T": {"type": "DT_FLOAT"}, "transpose_b": {"b": false}, "transpose_a": {"b": false}}}, {"name": "StatefulPartitionedCall/ocr_model_v1/bidirectional_1/forward_lstm_1/PartitionedCall/while/next_iteration/_284", "op": "NextIteration", "input": ["StatefulPartitionedCall/ocr_model_v1/bidirectional_1/forward_lstm_1/PartitionedCall/while/body/_234/while/add_2", "^StatefulPartitionedCall/ocr_model_v1/bidirectional_1/forward_lstm_1/PartitionedCall/while/loop_body_control/_269"], "attr": {"T": {"type": "DT_INT32"}}}, {"name": "StatefulPartitionedCall/ocr_model_v1/bidirectional_1/forward_lstm_1/PartitionedCall/while/next_iteration/_282", "op": "NextIteration", "input": ["StatefulPartitionedCall/ocr_model_v1/bidirectional_1/forward_lstm_1/PartitionedCall/while/body/_234/while/add_3", "^StatefulPartitionedCall/ocr_model_v1/bidirectional_1/forward_lstm_1/PartitionedCall/while/loop_body_control/_269"], "attr": {"T": {"type": "DT_INT32"}}}, {"name": "StatefulPartitionedCall/ocr_model_v1/bidirectional_1/backward_lstm_1/PartitionedCall/while/body/_294/while/MatMul", "op": "MatMul", "input": ["StatefulPartitionedCall/ocr_model_v1/bidirectional_1/backward_lstm_1/PartitionedCall/while/body/_294/while/TensorArrayV2Read/TensorListGetItem", "StatefulPartitionedCall/ocr_model_v1/bidirectional_1/backward_lstm_1/PartitionedCall/while/Func/StatefulPartitionedCall/ocr_model_v1/bidirectional_1/backward_lstm_1/PartitionedCall/input/_60_switch/_326:1"], "device": "/device:CPU:0", "attr": {"transpose_b": {"b": false}, "T": {"type": "DT_FLOAT"}, "transpose_a": {"b": false}}}, {"name": "StatefulPartitionedCall/ocr_model_v1/bidirectional_1/backward_lstm_1/PartitionedCall/while/next_iteration/_344", "op": "NextIteration", "input": ["StatefulPartitionedCall/ocr_model_v1/bidirectional_1/backward_lstm_1/PartitionedCall/while/body/_294/while/add_2", "^StatefulPartitionedCall/ocr_model_v1/bidirectional_1/backward_lstm_1/PartitionedCall/while/loop_body_control/_329"], "attr": {"T": {"type": "DT_INT32"}}}, {"name": "StatefulPartitionedCall/ocr_model_v1/bidirectional_1/backward_lstm_1/PartitionedCall/while/next_iteration/_342", "op": "NextIteration", "input": ["StatefulPartitionedCall/ocr_model_v1/bidirectional_1/backward_lstm_1/PartitionedCall/while/body/_294/while/add_3", "^StatefulPartitionedCall/ocr_model_v1/bidirectional_1/backward_lstm_1/PartitionedCall/while/loop_body_control/_329"], "attr": {"T": {"type": "DT_INT32"}}}, {"name": "StatefulPartitionedCall/ocr_model_v1/bidirectional_1/ReverseV2", "op": "ReverseV2", "input": ["StatefulPartitionedCall/ocr_model_v1/bidirectional_1/backward_lstm_1/PartitionedCall/transpose_1", "StatefulPartitionedCall/ocr_model_v1/bidirectional_1/ReverseV2/axis"], "attr": {"T": {"type": "DT_FLOAT"}, "Tidx": {"type": "DT_INT32"}}}, {"name": "StatefulPartitionedCall/ocr_model_v1/bidirectional_1/forward_lstm_1/PartitionedCall/while/body/_234/while/add", "op": "AddV2", "input": ["StatefulPartitionedCall/ocr_model_v1/bidirectional_1/forward_lstm_1/PartitionedCall/while/body/_234/while/MatMul", "StatefulPartitionedCall/ocr_model_v1/bidirectional_1/forward_lstm_1/PartitionedCall/while/body/_234/while/MatMul_1"], "attr": {"T": {"type": "DT_FLOAT"}}}, {"name": "StatefulPartitionedCall/ocr_model_v1/bidirectional_1/backward_lstm_1/PartitionedCall/while/body/_294/while/add", "op": "AddV2", "input": ["StatefulPartitionedCall/ocr_model_v1/bidirectional_1/backward_lstm_1/PartitionedCall/while/body/_294/while/MatMul", "StatefulPartitionedCall/ocr_model_v1/bidirectional_1/backward_lstm_1/PartitionedCall/while/body/_294/while/MatMul_1"], "attr": {"T": {"type": "DT_FLOAT"}}}, {"name": "StatefulPartitionedCall/ocr_model_v1/bidirectional_1/concat", "op": "ConcatV2", "input": ["StatefulPartitionedCall/ocr_model_v1/bidirectional_1/forward_lstm_1/PartitionedCall/transpose_1", "StatefulPartitionedCall/ocr_model_v1/bidirectional_1/ReverseV2", "StatefulPartitionedCall/ocr_model_v1/bidirectional_1/concat/axis"], "attr": {"T": {"type": "DT_FLOAT"}, "N": {"i": "2"}, "Tidx": {"type": "DT_INT32"}}}, {"name": "StatefulPartitionedCall/ocr_model_v1/bidirectional_1/forward_lstm_1/PartitionedCall/while/body/_234/while/BiasAdd", "op": "BiasAdd", "input": ["StatefulPartitionedCall/ocr_model_v1/bidirectional_1/forward_lstm_1/PartitionedCall/while/body/_234/while/add", "StatefulPartitionedCall/ocr_model_v1/bidirectional_1/forward_lstm_1/PartitionedCall/while/Func/StatefulPartitionedCall/ocr_model_v1/bidirectional_1/forward_lstm_1/PartitionedCall/input/_51_switch/_268:1"], "attr": {"data_format": {"s": "TkhXQw=="}, "T": {"type": "DT_FLOAT"}}}, {"name": "StatefulPartitionedCall/ocr_model_v1/bidirectional_1/backward_lstm_1/PartitionedCall/while/body/_294/while/BiasAdd", "op": "BiasAdd", "input": ["StatefulPartitionedCall/ocr_model_v1/bidirectional_1/backward_lstm_1/PartitionedCall/while/body/_294/while/add", "StatefulPartitionedCall/ocr_model_v1/bidirectional_1/backward_lstm_1/PartitionedCall/while/Func/StatefulPartitionedCall/ocr_model_v1/bidirectional_1/backward_lstm_1/PartitionedCall/input/_62_switch/_328:1"], "attr": {"data_format": {"s": "TkhXQw=="}, "T": {"type": "DT_FLOAT"}}}, {"name": "StatefulPartitionedCall/ocr_model_v1/dense2/Tensordot/Shape", "op": "Shape", "input": ["StatefulPartitionedCall/ocr_model_v1/bidirectional_1/concat"], "attr": {"T": {"type": "DT_FLOAT"}, "out_type": {"type": "DT_INT32"}}}, {"name": "StatefulPartitionedCall/ocr_model_v1/bidirectional_1/forward_lstm_1/PartitionedCall/while/body/_234/while/split", "op": "Split", "input": ["StatefulPartitionedCall/ocr_model_v1/bidirectional_1/forward_lstm_1/PartitionedCall/while/body/_234/while/split/split_dim", "StatefulPartitionedCall/ocr_model_v1/bidirectional_1/forward_lstm_1/PartitionedCall/while/body/_234/while/BiasAdd"], "attr": {"num_split": {"i": "4"}, "T": {"type": "DT_FLOAT"}}}, {"name": "StatefulPartitionedCall/ocr_model_v1/bidirectional_1/backward_lstm_1/PartitionedCall/while/body/_294/while/split", "op": "Split", "input": ["StatefulPartitionedCall/ocr_model_v1/bidirectional_1/backward_lstm_1/PartitionedCall/while/body/_294/while/split/split_dim", "StatefulPartitionedCall/ocr_model_v1/bidirectional_1/backward_lstm_1/PartitionedCall/while/body/_294/while/BiasAdd"], "attr": {"num_split": {"i": "4"}, "T": {"type": "DT_FLOAT"}}}, {"name": "StatefulPartitionedCall/ocr_model_v1/dense2/Tensordot/GatherV2_1", "op": "GatherV2", "input": ["StatefulPartitionedCall/ocr_model_v1/dense2/Tensordot/Shape", "StatefulPartitionedCall/ocr_model_v1/dense2/Tensordot/axes", "StatefulPartitionedCall/ocr_model_v1/dense2/Tensordot/GatherV2_1/axis"], "attr": {"Tparams": {"type": "DT_INT32"}, "Tindices": {"type": "DT_INT32"}, "batch_dims": {"i": "0"}, "Taxis": {"type": "DT_INT32"}}}, {"name": "StatefulPartitionedCall/ocr_model_v1/dense2/Tensordot/GatherV2", "op": "GatherV2", "input": ["StatefulPartitionedCall/ocr_model_v1/dense2/Tensordot/Shape", "StatefulPartitionedCall/ocr_model_v1/dense2/Tensordot/free", "StatefulPartitionedCall/ocr_model_v1/dense2/Tensordot/GatherV2/axis"], "attr": {"Tindices": {"type": "DT_INT32"}, "Taxis": {"type": "DT_INT32"}, "Tparams": {"type": "DT_INT32"}, "batch_dims": {"i": "0"}}}, {"name": "StatefulPartitionedCall/ocr_model_v1/bidirectional_1/forward_lstm_1/PartitionedCall/while/body/_234/while/Sigmoid", "op": "Sigmoid", "input": ["StatefulPartitionedCall/ocr_model_v1/bidirectional_1/forward_lstm_1/PartitionedCall/while/body/_234/while/split"], "attr": {"T": {"type": "DT_FLOAT"}}}, {"name": "StatefulPartitionedCall/ocr_model_v1/bidirectional_1/forward_lstm_1/PartitionedCall/while/body/_234/while/Sigmoid_1", "op": "Sigmoid", "input": ["StatefulPartitionedCall/ocr_model_v1/bidirectional_1/forward_lstm_1/PartitionedCall/while/body/_234/while/split:1"], "attr": {"T": {"type": "DT_FLOAT"}}}, {"name": "StatefulPartitionedCall/ocr_model_v1/bidirectional_1/forward_lstm_1/PartitionedCall/while/body/_234/while/Tanh", "op": "Tanh", "input": ["StatefulPartitionedCall/ocr_model_v1/bidirectional_1/forward_lstm_1/PartitionedCall/while/body/_234/while/split:2"], "attr": {"T": {"type": "DT_FLOAT"}}}, {"name": "StatefulPartitionedCall/ocr_model_v1/bidirectional_1/forward_lstm_1/PartitionedCall/while/body/_234/while/Sigmoid_2", "op": "Sigmoid", "input": ["StatefulPartitionedCall/ocr_model_v1/bidirectional_1/forward_lstm_1/PartitionedCall/while/body/_234/while/split:3"], "attr": {"T": {"type": "DT_FLOAT"}}}, {"name": "StatefulPartitionedCall/ocr_model_v1/bidirectional_1/backward_lstm_1/PartitionedCall/while/body/_294/while/Sigmoid", "op": "Sigmoid", "input": ["StatefulPartitionedCall/ocr_model_v1/bidirectional_1/backward_lstm_1/PartitionedCall/while/body/_294/while/split"], "attr": {"T": {"type": "DT_FLOAT"}}}, {"name": "StatefulPartitionedCall/ocr_model_v1/bidirectional_1/backward_lstm_1/PartitionedCall/while/body/_294/while/Sigmoid_1", "op": "Sigmoid", "input": ["StatefulPartitionedCall/ocr_model_v1/bidirectional_1/backward_lstm_1/PartitionedCall/while/body/_294/while/split:1"], "attr": {"T": {"type": "DT_FLOAT"}}}, {"name": "StatefulPartitionedCall/ocr_model_v1/bidirectional_1/backward_lstm_1/PartitionedCall/while/body/_294/while/Tanh", "op": "Tanh", "input": ["StatefulPartitionedCall/ocr_model_v1/bidirectional_1/backward_lstm_1/PartitionedCall/while/body/_294/while/split:2"], "attr": {"T": {"type": "DT_FLOAT"}}}, {"name": "StatefulPartitionedCall/ocr_model_v1/bidirectional_1/backward_lstm_1/PartitionedCall/while/body/_294/while/Sigmoid_2", "op": "Sigmoid", "input": ["StatefulPartitionedCall/ocr_model_v1/bidirectional_1/backward_lstm_1/PartitionedCall/while/body/_294/while/split:3"], "attr": {"T": {"type": "DT_FLOAT"}}}, {"name": "StatefulPartitionedCall/ocr_model_v1/dense2/Tensordot/Prod_1", "op": "Prod", "input": ["StatefulPartitionedCall/ocr_model_v1/dense2/Tensordot/GatherV2_1", "StatefulPartitionedCall/ocr_model_v1/dense2/Tensordot/Const_1"], "attr": {"Tidx": {"type": "DT_INT32"}, "T": {"type": "DT_INT32"}, "keep_dims": {"b": false}}}, {"name": "StatefulPartitionedCall/ocr_model_v1/dense2/Tensordot/Prod", "op": "Prod", "input": ["StatefulPartitionedCall/ocr_model_v1/dense2/Tensordot/GatherV2", "StatefulPartitionedCall/ocr_model_v1/dense2/Tensordot/Const"], "attr": {"keep_dims": {"b": false}, "T": {"type": "DT_INT32"}, "Tidx": {"type": "DT_INT32"}}}, {"name": "StatefulPartitionedCall/ocr_model_v1/dense2/Tensordot/concat_1", "op": "ConcatV2", "input": ["StatefulPartitionedCall/ocr_model_v1/dense2/Tensordot/GatherV2", "StatefulPartitionedCall/ocr_model_v1/dense2/Tensordot/Const_2", "StatefulPartitionedCall/ocr_model_v1/dense2/Tensordot/concat_1/axis"], "attr": {"Tidx": {"type": "DT_INT32"}, "N": {"i": "2"}, "T": {"type": "DT_INT32"}}}, {"name": "StatefulPartitionedCall/ocr_model_v1/bidirectional_1/forward_lstm_1/PartitionedCall/while/body/_234/while/mul", "op": "Mul", "input": ["StatefulPartitionedCall/ocr_model_v1/bidirectional_1/forward_lstm_1/PartitionedCall/while/body/_234/while/Sigmoid_1", "StatefulPartitionedCall/ocr_model_v1/bidirectional_1/forward_lstm_1/PartitionedCall/while/Func/StatefulPartitionedCall/ocr_model_v1/bidirectional_1/forward_lstm_1/PartitionedCall/input/_48_switch/_263:1"], "attr": {"T": {"type": "DT_FLOAT"}}}, {"name": "StatefulPartitionedCall/ocr_model_v1/bidirectional_1/forward_lstm_1/PartitionedCall/while/body/_234/while/mul_1", "op": "Mul", "input": ["StatefulPartitionedCall/ocr_model_v1/bidirectional_1/forward_lstm_1/PartitionedCall/while/body/_234/while/Sigmoid", "StatefulPartitionedCall/ocr_model_v1/bidirectional_1/forward_lstm_1/PartitionedCall/while/body/_234/while/Tanh"], "attr": {"T": {"type": "DT_FLOAT"}}}, {"name": "StatefulPartitionedCall/ocr_model_v1/bidirectional_1/backward_lstm_1/PartitionedCall/while/body/_294/while/mul", "op": "Mul", "input": ["StatefulPartitionedCall/ocr_model_v1/bidirectional_1/backward_lstm_1/PartitionedCall/while/body/_294/while/Sigmoid_1", "StatefulPartitionedCall/ocr_model_v1/bidirectional_1/backward_lstm_1/PartitionedCall/while/Func/StatefulPartitionedCall/ocr_model_v1/bidirectional_1/backward_lstm_1/PartitionedCall/input/_59_switch/_323:1"], "attr": {"T": {"type": "DT_FLOAT"}}}, {"name": "StatefulPartitionedCall/ocr_model_v1/bidirectional_1/backward_lstm_1/PartitionedCall/while/body/_294/while/mul_1", "op": "Mul", "input": ["StatefulPartitionedCall/ocr_model_v1/bidirectional_1/backward_lstm_1/PartitionedCall/while/body/_294/while/Sigmoid", "StatefulPartitionedCall/ocr_model_v1/bidirectional_1/backward_lstm_1/PartitionedCall/while/body/_294/while/Tanh"], "attr": {"T": {"type": "DT_FLOAT"}}}, {"name": "StatefulPartitionedCall/ocr_model_v1/dense2/Tensordot/stack", "op": "Pack", "input": ["StatefulPartitionedCall/ocr_model_v1/dense2/Tensordot/Prod", "StatefulPartitionedCall/ocr_model_v1/dense2/Tensordot/Prod_1"], "attr": {"N": {"i": "2"}, "axis": {"i": "0"}, "T": {"type": "DT_INT32"}}}, {"name": "StatefulPartitionedCall/ocr_model_v1/bidirectional_1/forward_lstm_1/PartitionedCall/while/body/_234/while/add_1", "op": "AddV2", "input": ["StatefulPartitionedCall/ocr_model_v1/bidirectional_1/forward_lstm_1/PartitionedCall/while/body/_234/while/mul", "StatefulPartitionedCall/ocr_model_v1/bidirectional_1/forward_lstm_1/PartitionedCall/while/body/_234/while/mul_1"], "attr": {"T": {"type": "DT_FLOAT"}}}, {"name": "StatefulPartitionedCall/ocr_model_v1/bidirectional_1/backward_lstm_1/PartitionedCall/while/body/_294/while/add_1", "op": "AddV2", "input": ["StatefulPartitionedCall/ocr_model_v1/bidirectional_1/backward_lstm_1/PartitionedCall/while/body/_294/while/mul", "StatefulPartitionedCall/ocr_model_v1/bidirectional_1/backward_lstm_1/PartitionedCall/while/body/_294/while/mul_1"], "attr": {"T": {"type": "DT_FLOAT"}}}, {"name": "StatefulPartitionedCall/ocr_model_v1/dense2/Tensordot/Reshape", "op": "Reshape", "input": ["StatefulPartitionedCall/ocr_model_v1/bidirectional_1/concat", "StatefulPartitionedCall/ocr_model_v1/dense2/Tensordot/stack"], "attr": {"T": {"type": "DT_FLOAT"}, "Tshape": {"type": "DT_INT32"}}}, {"name": "StatefulPartitionedCall/ocr_model_v1/bidirectional_1/forward_lstm_1/PartitionedCall/while/body/_234/while/Tanh_1", "op": "Tanh", "input": ["StatefulPartitionedCall/ocr_model_v1/bidirectional_1/forward_lstm_1/PartitionedCall/while/body/_234/while/add_1"], "attr": {"T": {"type": "DT_FLOAT"}}}, {"name": "StatefulPartitionedCall/ocr_model_v1/bidirectional_1/forward_lstm_1/PartitionedCall/while/next_iteration/_287", "op": "NextIteration", "input": ["StatefulPartitionedCall/ocr_model_v1/bidirectional_1/forward_lstm_1/PartitionedCall/while/body/_234/while/add_1", "^StatefulPartitionedCall/ocr_model_v1/bidirectional_1/forward_lstm_1/PartitionedCall/while/loop_body_control/_269"], "attr": {"T": {"type": "DT_FLOAT"}}}, {"name": "StatefulPartitionedCall/ocr_model_v1/bidirectional_1/backward_lstm_1/PartitionedCall/while/body/_294/while/Tanh_1", "op": "Tanh", "input": ["StatefulPartitionedCall/ocr_model_v1/bidirectional_1/backward_lstm_1/PartitionedCall/while/body/_294/while/add_1"], "attr": {"T": {"type": "DT_FLOAT"}}}, {"name": "StatefulPartitionedCall/ocr_model_v1/bidirectional_1/backward_lstm_1/PartitionedCall/while/next_iteration/_347", "op": "NextIteration", "input": ["StatefulPartitionedCall/ocr_model_v1/bidirectional_1/backward_lstm_1/PartitionedCall/while/body/_294/while/add_1", "^StatefulPartitionedCall/ocr_model_v1/bidirectional_1/backward_lstm_1/PartitionedCall/while/loop_body_control/_329"], "attr": {"T": {"type": "DT_FLOAT"}}}, {"name": "StatefulPartitionedCall/ocr_model_v1/dense2/Tensordot/MatMul", "op": "MatMul", "input": ["StatefulPartitionedCall/ocr_model_v1/dense2/Tensordot/Reshape", "StatefulPartitionedCall/ocr_model_v1/dense2/Tensordot/ReadVariableOp"], "device": "/device:CPU:0", "attr": {"transpose_a": {"b": false}, "transpose_b": {"b": false}, "T": {"type": "DT_FLOAT"}}}, {"name": "StatefulPartitionedCall/ocr_model_v1/bidirectional_1/forward_lstm_1/PartitionedCall/while/body/_234/while/mul_2", "op": "Mul", "input": ["StatefulPartitionedCall/ocr_model_v1/bidirectional_1/forward_lstm_1/PartitionedCall/while/body/_234/while/Sigmoid_2", "StatefulPartitionedCall/ocr_model_v1/bidirectional_1/forward_lstm_1/PartitionedCall/while/body/_234/while/Tanh_1"], "attr": {"T": {"type": "DT_FLOAT"}}}, {"name": "StatefulPartitionedCall/ocr_model_v1/bidirectional_1/backward_lstm_1/PartitionedCall/while/body/_294/while/mul_2", "op": "Mul", "input": ["StatefulPartitionedCall/ocr_model_v1/bidirectional_1/backward_lstm_1/PartitionedCall/while/body/_294/while/Sigmoid_2", "StatefulPartitionedCall/ocr_model_v1/bidirectional_1/backward_lstm_1/PartitionedCall/while/body/_294/while/Tanh_1"], "attr": {"T": {"type": "DT_FLOAT"}}}, {"name": "StatefulPartitionedCall/ocr_model_v1/dense2/Tensordot", "op": "Reshape", "input": ["StatefulPartitionedCall/ocr_model_v1/dense2/Tensordot/MatMul", "StatefulPartitionedCall/ocr_model_v1/dense2/Tensordot/concat_1"], "attr": {"T": {"type": "DT_FLOAT"}, "Tshape": {"type": "DT_INT32"}}}, {"name": "StatefulPartitionedCall/ocr_model_v1/bidirectional_1/forward_lstm_1/PartitionedCall/while/next_iteration/_286", "op": "NextIteration", "input": ["StatefulPartitionedCall/ocr_model_v1/bidirectional_1/forward_lstm_1/PartitionedCall/while/body/_234/while/mul_2", "^StatefulPartitionedCall/ocr_model_v1/bidirectional_1/forward_lstm_1/PartitionedCall/while/loop_body_control/_269"], "attr": {"T": {"type": "DT_FLOAT"}}}, {"name": "StatefulPartitionedCall/ocr_model_v1/bidirectional_1/forward_lstm_1/PartitionedCall/while/body/_234/while/TensorArrayV2Write/TensorListSetItem", "op": "TensorListSetItem", "input": ["StatefulPartitionedCall/ocr_model_v1/bidirectional_1/forward_lstm_1/PartitionedCall/while/StatefulPartitionedCall/ocr_model_v1/bidirectional_1/forward_lstm_1/PartitionedCall/TensorArrayV2_1_switch/_261:1", "Func/StatefulPartitionedCall/ocr_model_v1/bidirectional_1/forward_lstm_1/PartitionedCall/while/body/_234/input/_471", "StatefulPartitionedCall/ocr_model_v1/bidirectional_1/forward_lstm_1/PartitionedCall/while/body/_234/while/mul_2"], "attr": {"element_dtype": {"type": "DT_FLOAT"}}, "experimentalType": {"typeId": "TFT_PRODUCT", "args": [{"typeId": "TFT_ARRAY", "args": [{"typeId": "TFT_TENSOR", "args": [{"typeId": "TFT_FLOAT"}]}]}]}}, {"name": "StatefulPartitionedCall/ocr_model_v1/bidirectional_1/backward_lstm_1/PartitionedCall/while/next_iteration/_346", "op": "NextIteration", "input": ["StatefulPartitionedCall/ocr_model_v1/bidirectional_1/backward_lstm_1/PartitionedCall/while/body/_294/while/mul_2", "^StatefulPartitionedCall/ocr_model_v1/bidirectional_1/backward_lstm_1/PartitionedCall/while/loop_body_control/_329"], "attr": {"T": {"type": "DT_FLOAT"}}}, {"name": "StatefulPartitionedCall/ocr_model_v1/bidirectional_1/backward_lstm_1/PartitionedCall/while/body/_294/while/TensorArrayV2Write/TensorListSetItem", "op": "TensorListSetItem", "input": ["StatefulPartitionedCall/ocr_model_v1/bidirectional_1/backward_lstm_1/PartitionedCall/while/StatefulPartitionedCall/ocr_model_v1/bidirectional_1/backward_lstm_1/PartitionedCall/TensorArrayV2_1_switch/_321:1", "Func/StatefulPartitionedCall/ocr_model_v1/bidirectional_1/backward_lstm_1/PartitionedCall/while/body/_294/input/_508", "StatefulPartitionedCall/ocr_model_v1/bidirectional_1/backward_lstm_1/PartitionedCall/while/body/_294/while/mul_2"], "attr": {"element_dtype": {"type": "DT_FLOAT"}}, "experimentalType": {"typeId": "TFT_PRODUCT", "args": [{"typeId": "TFT_ARRAY", "args": [{"typeId": "TFT_TENSOR", "args": [{"typeId": "TFT_FLOAT"}]}]}]}}, {"name": "StatefulPartitionedCall/ocr_model_v1/dense2/BiasAdd", "op": "BiasAdd", "input": ["StatefulPartitionedCall/ocr_model_v1/dense2/Tensordot", "StatefulPartitionedCall/ocr_model_v1/dense2/BiasAdd/ReadVariableOp"], "attr": {"data_format": {"s": "TkhXQw=="}, "T": {"type": "DT_FLOAT"}}}, {"name": "StatefulPartitionedCall/ocr_model_v1/bidirectional_1/forward_lstm_1/PartitionedCall/while/next_iteration/_285", "op": "NextIteration", "input": ["StatefulPartitionedCall/ocr_model_v1/bidirectional_1/forward_lstm_1/PartitionedCall/while/body/_234/while/TensorArrayV2Write/TensorListSetItem", "^StatefulPartitionedCall/ocr_model_v1/bidirectional_1/forward_lstm_1/PartitionedCall/while/loop_body_control/_269"], "attr": {"T": {"type": "DT_VARIANT"}}}, {"name": "StatefulPartitionedCall/ocr_model_v1/bidirectional_1/backward_lstm_1/PartitionedCall/while/next_iteration/_345", "op": "NextIteration", "input": ["StatefulPartitionedCall/ocr_model_v1/bidirectional_1/backward_lstm_1/PartitionedCall/while/body/_294/while/TensorArrayV2Write/TensorListSetItem", "^StatefulPartitionedCall/ocr_model_v1/bidirectional_1/backward_lstm_1/PartitionedCall/while/loop_body_control/_329"], "attr": {"T": {"type": "DT_VARIANT"}}}, {"name": "StatefulPartitionedCall/ocr_model_v1/dense2/Softmax", "op": "Softmax", "input": ["StatefulPartitionedCall/ocr_model_v1/dense2/BiasAdd"], "attr": {"T": {"type": "DT_FLOAT"}}}, {"name": "Identity", "op": "Identity", "input": ["StatefulPartitionedCall/ocr_model_v1/dense2/Softmax"], "attr": {"T": {"type": "DT_FLOAT"}}}], "library": {}, "versions": {"producer": 1087}}, "weightsManifest": [{"paths": ["group1-shard1of1.bin"], "weights": [{"name": "StatefulPartitionedCall/ocr_model_v1/dense2/Tensordot/Const", "shape": [1], "dtype": "int32"}, {"name": "StatefulPartitionedCall/ocr_model_v1/dense2/Tensordot/axes", "shape": [1], "dtype": "int32"}, {"name": "StatefulPartitionedCall/ocr_model_v1/dense2/Tensordot/GatherV2_1/axis", "shape": [], "dtype": "int32"}, {"name": "StatefulPartitionedCall/ocr_model_v1/dense2/Tensordot/Const_1", "shape": [1], "dtype": "int32"}, {"name": "StatefulPartitionedCall/ocr_model_v1/dense2/Tensordot/ReadVariableOp", "shape": [128, 11], "dtype": "float32"}, {"name": "StatefulPartitionedCall/ocr_model_v1/bidirectional_1/forward_lstm_1/PartitionedCall/TensorArrayV2_1/element_shape", "shape": [2], "dtype": "int32"}, {"name": "StatefulPartitionedCall/ocr_model_v1/bidirectional_1/forward_lstm_1/zeros_1/packed/1", "shape": [], "dtype": "int32"}, {"name": "StatefulPartitionedCall/ocr_model_v1/bidirectional_1/forward_lstm_1/zeros_1/Const", "shape": [], "dtype": "float32"}, {"name": "StatefulPartitionedCall/ocr_model_v1/bidirectional_1/forward_lstm_1/PartitionedCall/TensorArrayUnstack/TensorListFromTensor/element_shape", "shape": [2], "dtype": "int32"}, {"name": "StatefulPartitionedCall/ocr_model_v1/bidirectional_1/forward_lstm_1/Read/ReadVariableOp", "shape": [256, 256], "dtype": "float32"}, {"name": "StatefulPartitionedCall/ocr_model_v1/bidirectional_1/forward_lstm_1/strided_slice/stack", "shape": [1], "dtype": "int32"}, {"name": "StatefulPartitionedCall/ocr_model_v1/bidirectional_1/forward_lstm_1/strided_slice/stack_1", "shape": [1], "dtype": "int32"}, {"name": "StatefulPartitionedCall/ocr_model_v1/bidirectional_1/forward_lstm_1/strided_slice/stack_2", "shape": [1], "dtype": "int32"}, {"name": "StatefulPartitionedCall/ocr_model_v1/bidirectional_1/forward_lstm_1/zeros/packed/1", "shape": [], "dtype": "int32"}, {"name": "StatefulPartitionedCall/ocr_model_v1/bidirectional_1/forward_lstm_1/zeros/Const", "shape": [], "dtype": "float32"}, {"name": "StatefulPartitionedCall/ocr_model_v1/bidirectional_1/forward_lstm_1/Read_1/ReadVariableOp", "shape": [64, 256], "dtype": "float32"}, {"name": "StatefulPartitionedCall/ocr_model_v1/bidirectional_1/forward_lstm_1/Read_2/ReadVariableOp", "shape": [256], "dtype": "float32"}, {"name": "StatefulPartitionedCall/ocr_model_v1/bidirectional_1/forward_lstm_1/PartitionedCall/time", "shape": [], "dtype": "int32"}, {"name": "StatefulPartitionedCall/ocr_model_v1/bidirectional_1/forward_lstm_1/PartitionedCall/transpose/perm", "shape": [3], "dtype": "int32"}, {"name": "StatefulPartitionedCall/ocr_model_v1/bidirectional_1/forward_lstm_1/PartitionedCall/strided_slice/stack", "shape": [1], "dtype": "int32"}, {"name": "StatefulPartitionedCall/ocr_model_v1/bidirectional_1/forward_lstm_1/PartitionedCall/strided_slice/stack_1", "shape": [1], "dtype": "int32"}, {"name": "StatefulPartitionedCall/ocr_model_v1/bidirectional_1/forward_lstm_1/PartitionedCall/strided_slice/stack_2", "shape": [1], "dtype": "int32"}, {"name": "StatefulPartitionedCall/ocr_model_v1/bidirectional_1/forward_lstm_1/PartitionedCall/while/loop_counter", "shape": [], "dtype": "int32"}, {"name": "StatefulPartitionedCall/ocr_model_v1/bidirectional_1/forward_lstm_1/PartitionedCall/TensorArrayV2Stack/TensorListStack/element_shape", "shape": [2], "dtype": "int32"}, {"name": "StatefulPartitionedCall/ocr_model_v1/bidirectional_1/forward_lstm_1/PartitionedCall/transpose_1/perm", "shape": [3], "dtype": "int32"}, {"name": "StatefulPartitionedCall/ocr_model_v1/bidirectional_1/backward_lstm_1/PartitionedCall/TensorArrayV2_1/element_shape", "shape": [2], "dtype": "int32"}, {"name": "StatefulPartitionedCall/ocr_model_v1/bidirectional_1/backward_lstm_1/zeros_1/packed/1", "shape": [], "dtype": "int32"}, {"name": "StatefulPartitionedCall/ocr_model_v1/bidirectional_1/backward_lstm_1/zeros_1/Const", "shape": [], "dtype": "float32"}, {"name": "StatefulPartitionedCall/ocr_model_v1/bidirectional_1/backward_lstm_1/PartitionedCall/ReverseV2/axis", "shape": [1], "dtype": "int32"}, {"name": "StatefulPartitionedCall/ocr_model_v1/bidirectional_1/backward_lstm_1/PartitionedCall/TensorArrayUnstack/TensorListFromTensor/element_shape", "shape": [2], "dtype": "int32"}, {"name": "StatefulPartitionedCall/ocr_model_v1/bidirectional_1/backward_lstm_1/Read/ReadVariableOp", "shape": [256, 256], "dtype": "float32"}, {"name": "StatefulPartitionedCall/ocr_model_v1/bidirectional_1/backward_lstm_1/strided_slice/stack", "shape": [1], "dtype": "int32"}, {"name": "StatefulPartitionedCall/ocr_model_v1/bidirectional_1/backward_lstm_1/strided_slice/stack_1", "shape": [1], "dtype": "int32"}, {"name": "StatefulPartitionedCall/ocr_model_v1/bidirectional_1/backward_lstm_1/strided_slice/stack_2", "shape": [1], "dtype": "int32"}, {"name": "StatefulPartitionedCall/ocr_model_v1/bidirectional_1/backward_lstm_1/zeros/packed/1", "shape": [], "dtype": "int32"}, {"name": "StatefulPartitionedCall/ocr_model_v1/bidirectional_1/backward_lstm_1/zeros/Const", "shape": [], "dtype": "float32"}, {"name": "StatefulPartitionedCall/ocr_model_v1/bidirectional_1/backward_lstm_1/Read_1/ReadVariableOp", "shape": [64, 256], "dtype": "float32"}, {"name": "StatefulPartitionedCall/ocr_model_v1/bidirectional_1/backward_lstm_1/Read_2/ReadVariableOp", "shape": [256], "dtype": "float32"}, {"name": "StatefulPartitionedCall/ocr_model_v1/bidirectional_1/backward_lstm_1/PartitionedCall/time", "shape": [], "dtype": "int32"}, {"name": "StatefulPartitionedCall/ocr_model_v1/bidirectional/forward_lstm/PartitionedCall/TensorArrayV2_1/element_shape", "shape": [2], "dtype": "int32"}, {"name": "StatefulPartitionedCall/ocr_model_v1/bidirectional/forward_lstm/zeros_1/packed/1", "shape": [], "dtype": "int32"}, {"name": "StatefulPartitionedCall/ocr_model_v1/bidirectional/forward_lstm/zeros_1/Const", "shape": [], "dtype": "float32"}, {"name": "StatefulPartitionedCall/ocr_model_v1/bidirectional/forward_lstm/PartitionedCall/TensorArrayUnstack/TensorListFromTensor/element_shape", "shape": [2], "dtype": "int32"}, {"name": "StatefulPartitionedCall/ocr_model_v1/bidirectional/forward_lstm/Read/ReadVariableOp", "shape": [64, 512], "dtype": "float32"}, {"name": "StatefulPartitionedCall/ocr_model_v1/bidirectional/forward_lstm/strided_slice/stack", "shape": [1], "dtype": "int32"}, {"name": "StatefulPartitionedCall/ocr_model_v1/bidirectional/forward_lstm/strided_slice/stack_1", "shape": [1], "dtype": "int32"}, {"name": "StatefulPartitionedCall/ocr_model_v1/bidirectional/forward_lstm/strided_slice/stack_2", "shape": [1], "dtype": "int32"}, {"name": "StatefulPartitionedCall/ocr_model_v1/bidirectional/forward_lstm/zeros/packed/1", "shape": [], "dtype": "int32"}, {"name": "StatefulPartitionedCall/ocr_model_v1/bidirectional/forward_lstm/zeros/Const", "shape": [], "dtype": "float32"}, {"name": "StatefulPartitionedCall/ocr_model_v1/bidirectional/forward_lstm/Read_1/ReadVariableOp", "shape": [128, 512], "dtype": "float32"}, {"name": "StatefulPartitionedCall/ocr_model_v1/bidirectional/forward_lstm/Read_2/ReadVariableOp", "shape": [512], "dtype": "float32"}, {"name": "StatefulPartitionedCall/ocr_model_v1/bidirectional/forward_lstm/PartitionedCall/time", "shape": [], "dtype": "int32"}, {"name": "StatefulPartitionedCall/ocr_model_v1/bidirectional/forward_lstm/PartitionedCall/transpose/perm", "shape": [3], "dtype": "int32"}, {"name": "StatefulPartitionedCall/ocr_model_v1/bidirectional/forward_lstm/PartitionedCall/strided_slice/stack", "shape": [1], "dtype": "int32"}, {"name": "StatefulPartitionedCall/ocr_model_v1/bidirectional/forward_lstm/PartitionedCall/strided_slice/stack_1", "shape": [1], "dtype": "int32"}, {"name": "StatefulPartitionedCall/ocr_model_v1/bidirectional/forward_lstm/PartitionedCall/strided_slice/stack_2", "shape": [1], "dtype": "int32"}, {"name": "StatefulPartitionedCall/ocr_model_v1/bidirectional/forward_lstm/PartitionedCall/while/loop_counter", "shape": [], "dtype": "int32"}, {"name": "StatefulPartitionedCall/ocr_model_v1/bidirectional/forward_lstm/PartitionedCall/TensorArrayV2Stack/TensorListStack/element_shape", "shape": [2], "dtype": "int32"}, {"name": "StatefulPartitionedCall/ocr_model_v1/bidirectional/forward_lstm/PartitionedCall/transpose_1/perm", "shape": [3], "dtype": "int32"}, {"name": "StatefulPartitionedCall/ocr_model_v1/bidirectional/backward_lstm/PartitionedCall/TensorArrayV2_1/element_shape", "shape": [2], "dtype": "int32"}, {"name": "StatefulPartitionedCall/ocr_model_v1/bidirectional/backward_lstm/zeros_1/packed/1", "shape": [], "dtype": "int32"}, {"name": "StatefulPartitionedCall/ocr_model_v1/bidirectional/backward_lstm/zeros_1/Const", "shape": [], "dtype": "float32"}, {"name": "StatefulPartitionedCall/ocr_model_v1/bidirectional/backward_lstm/PartitionedCall/ReverseV2/axis", "shape": [1], "dtype": "int32"}, {"name": "StatefulPartitionedCall/ocr_model_v1/bidirectional/backward_lstm/PartitionedCall/TensorArrayUnstack/TensorListFromTensor/element_shape", "shape": [2], "dtype": "int32"}, {"name": "StatefulPartitionedCall/ocr_model_v1/bidirectional/backward_lstm/Read/ReadVariableOp", "shape": [64, 512], "dtype": "float32"}, {"name": "StatefulPartitionedCall/ocr_model_v1/bidirectional/backward_lstm/strided_slice/stack", "shape": [1], "dtype": "int32"}, {"name": "StatefulPartitionedCall/ocr_model_v1/bidirectional/backward_lstm/strided_slice/stack_1", "shape": [1], "dtype": "int32"}, {"name": "StatefulPartitionedCall/ocr_model_v1/bidirectional/backward_lstm/strided_slice/stack_2", "shape": [1], "dtype": "int32"}, {"name": "StatefulPartitionedCall/ocr_model_v1/bidirectional/backward_lstm/zeros/packed/1", "shape": [], "dtype": "int32"}, {"name": "StatefulPartitionedCall/ocr_model_v1/bidirectional/backward_lstm/zeros/Const", "shape": [], "dtype": "float32"}, {"name": "StatefulPartitionedCall/ocr_model_v1/bidirectional/backward_lstm/Read_1/ReadVariableOp", "shape": [128, 512], "dtype": "float32"}, {"name": "StatefulPartitionedCall/ocr_model_v1/bidirectional/backward_lstm/Read_2/ReadVariableOp", "shape": [512], "dtype": "float32"}, {"name": "StatefulPartitionedCall/ocr_model_v1/bidirectional/backward_lstm/PartitionedCall/time", "shape": [], "dtype": "int32"}, {"name": "StatefulPartitionedCall/ocr_model_v1/dense1/Tensordot/Const", "shape": [1], "dtype": "int32"}, {"name": "StatefulPartitionedCall/ocr_model_v1/dense1/Tensordot/axes", "shape": [1], "dtype": "int32"}, {"name": "StatefulPartitionedCall/ocr_model_v1/dense1/Tensordot/GatherV2_1/axis", "shape": [], "dtype": "int32"}, {"name": "StatefulPartitionedCall/ocr_model_v1/dense1/Tensordot/Const_1", "shape": [1], "dtype": "int32"}, {"name": "StatefulPartitionedCall/ocr_model_v1/dense1/Tensordot/ReadVariableOp", "shape": [768, 64], "dtype": "float32"}, {"name": "StatefulPartitionedCall/ocr_model_v1/Conv1/Conv2D/ReadVariableOp", "shape": [3, 3, 1, 32], "dtype": "float32"}, {"name": "StatefulPartitionedCall/ocr_model_v1/Conv1/BiasAdd/ReadVariableOp", "shape": [32], "dtype": "float32"}, {"name": "StatefulPartitionedCall/ocr_model_v1/Conv2/Conv2D/ReadVariableOp", "shape": [3, 3, 32, 64], "dtype": "float32"}, {"name": "StatefulPartitionedCall/ocr_model_v1/Conv2/BiasAdd/ReadVariableOp", "shape": [64], "dtype": "float32"}, {"name": "StatefulPartitionedCall/ocr_model_v1/reshape/strided_slice/stack", "shape": [1], "dtype": "int32"}, {"name": "StatefulPartitionedCall/ocr_model_v1/reshape/strided_slice/stack_1", "shape": [1], "dtype": "int32"}, {"name": "StatefulPartitionedCall/ocr_model_v1/reshape/strided_slice/stack_2", "shape": [1], "dtype": "int32"}, {"name": "StatefulPartitionedCall/ocr_model_v1/reshape/Reshape/shape/1", "shape": [], "dtype": "int32"}, {"name": "StatefulPartitionedCall/ocr_model_v1/reshape/Reshape/shape/2", "shape": [], "dtype": "int32"}, {"name": "StatefulPartitionedCall/ocr_model_v1/dense1/Tensordot/free", "shape": [2], "dtype": "int32"}, {"name": "StatefulPartitionedCall/ocr_model_v1/dense1/Tensordot/GatherV2/axis", "shape": [], "dtype": "int32"}, {"name": "StatefulPartitionedCall/ocr_model_v1/dense1/Tensordot/Const_2", "shape": [1], "dtype": "int32"}, {"name": "StatefulPartitionedCall/ocr_model_v1/dense1/Tensordot/concat_1/axis", "shape": [], "dtype": "int32"}, {"name": "StatefulPartitionedCall/ocr_model_v1/dense1/BiasAdd/ReadVariableOp", "shape": [64], "dtype": "float32"}, {"name": "StatefulPartitionedCall/ocr_model_v1/bidirectional/backward_lstm/PartitionedCall/transpose/perm", "shape": [3], "dtype": "int32"}, {"name": "StatefulPartitionedCall/ocr_model_v1/bidirectional/backward_lstm/PartitionedCall/strided_slice/stack", "shape": [1], "dtype": "int32"}, {"name": "StatefulPartitionedCall/ocr_model_v1/bidirectional/backward_lstm/PartitionedCall/strided_slice/stack_1", "shape": [1], "dtype": "int32"}, {"name": "StatefulPartitionedCall/ocr_model_v1/bidirectional/backward_lstm/PartitionedCall/strided_slice/stack_2", "shape": [1], "dtype": "int32"}, {"name": "StatefulPartitionedCall/ocr_model_v1/bidirectional/backward_lstm/PartitionedCall/while/loop_counter", "shape": [], "dtype": "int32"}, {"name": "StatefulPartitionedCall/ocr_model_v1/bidirectional/backward_lstm/PartitionedCall/TensorArrayV2Stack/TensorListStack/element_shape", "shape": [2], "dtype": "int32"}, {"name": "StatefulPartitionedCall/ocr_model_v1/bidirectional/backward_lstm/PartitionedCall/transpose_1/perm", "shape": [3], "dtype": "int32"}, {"name": "StatefulPartitionedCall/ocr_model_v1/bidirectional/ReverseV2/axis", "shape": [1], "dtype": "int32"}, {"name": "StatefulPartitionedCall/ocr_model_v1/bidirectional/concat/axis", "shape": [], "dtype": "int32"}, {"name": "StatefulPartitionedCall/ocr_model_v1/bidirectional_1/backward_lstm_1/PartitionedCall/transpose/perm", "shape": [3], "dtype": "int32"}, {"name": "StatefulPartitionedCall/ocr_model_v1/bidirectional_1/backward_lstm_1/PartitionedCall/strided_slice/stack", "shape": [1], "dtype": "int32"}, {"name": "StatefulPartitionedCall/ocr_model_v1/bidirectional_1/backward_lstm_1/PartitionedCall/strided_slice/stack_1", "shape": [1], "dtype": "int32"}, {"name": "StatefulPartitionedCall/ocr_model_v1/bidirectional_1/backward_lstm_1/PartitionedCall/strided_slice/stack_2", "shape": [1], "dtype": "int32"}, {"name": "StatefulPartitionedCall/ocr_model_v1/bidirectional_1/backward_lstm_1/PartitionedCall/while/loop_counter", "shape": [], "dtype": "int32"}, {"name": "StatefulPartitionedCall/ocr_model_v1/bidirectional_1/backward_lstm_1/PartitionedCall/TensorArrayV2Stack/TensorListStack/element_shape", "shape": [2], "dtype": "int32"}, {"name": "StatefulPartitionedCall/ocr_model_v1/bidirectional_1/backward_lstm_1/PartitionedCall/transpose_1/perm", "shape": [3], "dtype": "int32"}, {"name": "StatefulPartitionedCall/ocr_model_v1/bidirectional_1/ReverseV2/axis", "shape": [1], "dtype": "int32"}, {"name": "StatefulPartitionedCall/ocr_model_v1/bidirectional_1/concat/axis", "shape": [], "dtype": "int32"}, {"name": "StatefulPartitionedCall/ocr_model_v1/dense2/Tensordot/free", "shape": [2], "dtype": "int32"}, {"name": "StatefulPartitionedCall/ocr_model_v1/dense2/Tensordot/GatherV2/axis", "shape": [], "dtype": "int32"}, {"name": "StatefulPartitionedCall/ocr_model_v1/dense2/Tensordot/Const_2", "shape": [1], "dtype": "int32"}, {"name": "StatefulPartitionedCall/ocr_model_v1/dense2/Tensordot/concat_1/axis", "shape": [], "dtype": "int32"}, {"name": "StatefulPartitionedCall/ocr_model_v1/dense2/BiasAdd/ReadVariableOp", "shape": [11], "dtype": "float32"}, {"name": "StatefulPartitionedCall/ocr_model_v1/bidirectional/forward_lstm/PartitionedCall/while/body/_114/while/split/split_dim", "shape": [], "dtype": "int32"}, {"name": "StatefulPartitionedCall/ocr_model_v1/bidirectional/forward_lstm/PartitionedCall/while/body/_114/while/TensorArrayV2Read/TensorListGetItem/element_shape", "shape": [2], "dtype": "int32"}, {"name": "StatefulPartitionedCall/ocr_model_v1/bidirectional/forward_lstm/PartitionedCall/while/body/_114/while/add_2/y", "shape": [], "dtype": "int32"}, {"name": "StatefulPartitionedCall/ocr_model_v1/bidirectional/forward_lstm/PartitionedCall/while/body/_114/while/add_3/y", "shape": [], "dtype": "int32"}, {"name": "StatefulPartitionedCall/ocr_model_v1/bidirectional/backward_lstm/PartitionedCall/while/body/_174/while/split/split_dim", "shape": [], "dtype": "int32"}, {"name": "StatefulPartitionedCall/ocr_model_v1/bidirectional/backward_lstm/PartitionedCall/while/body/_174/while/TensorArrayV2Read/TensorListGetItem/element_shape", "shape": [2], "dtype": "int32"}, {"name": "StatefulPartitionedCall/ocr_model_v1/bidirectional/backward_lstm/PartitionedCall/while/body/_174/while/add_2/y", "shape": [], "dtype": "int32"}, {"name": "StatefulPartitionedCall/ocr_model_v1/bidirectional/backward_lstm/PartitionedCall/while/body/_174/while/add_3/y", "shape": [], "dtype": "int32"}, {"name": "StatefulPartitionedCall/ocr_model_v1/bidirectional_1/forward_lstm_1/PartitionedCall/while/body/_234/while/split/split_dim", "shape": [], "dtype": "int32"}, {"name": "StatefulPartitionedCall/ocr_model_v1/bidirectional_1/forward_lstm_1/PartitionedCall/while/body/_234/while/TensorArrayV2Read/TensorListGetItem/element_shape", "shape": [2], "dtype": "int32"}, {"name": "StatefulPartitionedCall/ocr_model_v1/bidirectional_1/forward_lstm_1/PartitionedCall/while/body/_234/while/add_2/y", "shape": [], "dtype": "int32"}, {"name": "StatefulPartitionedCall/ocr_model_v1/bidirectional_1/forward_lstm_1/PartitionedCall/while/body/_234/while/add_3/y", "shape": [], "dtype": "int32"}, {"name": "StatefulPartitionedCall/ocr_model_v1/bidirectional_1/backward_lstm_1/PartitionedCall/while/body/_294/while/split/split_dim", "shape": [], "dtype": "int32"}, {"name": "StatefulPartitionedCall/ocr_model_v1/bidirectional_1/backward_lstm_1/PartitionedCall/while/body/_294/while/TensorArrayV2Read/TensorListGetItem/element_shape", "shape": [2], "dtype": "int32"}, {"name": "StatefulPartitionedCall/ocr_model_v1/bidirectional_1/backward_lstm_1/PartitionedCall/while/body/_294/while/add_2/y", "shape": [], "dtype": "int32"}, {"name": "StatefulPartitionedCall/ocr_model_v1/bidirectional_1/backward_lstm_1/PartitionedCall/while/body/_294/while/add_3/y", "shape": [], "dtype": "int32"}]}]}